{
  "format": "layers-model",
  "generatedBy": null,
  "convertedBy": "TensorFlow.js Converter v3.18.0",
  "modelTopology": {
    "class_name": "Functional",
    "config": {
      "name": "model_2",
      "layers": [
        {
          "class_name": "InputLayer",
          "config": {
            "batch_input_shape": [null, 256, 256, 1],
            "dtype": "float32",
            "sparse": false,
            "ragged": false,
            "name": "input_6"
          },
          "name": "input_6",
          "inbound_nodes": []
        },
        {
          "class_name": "Conv2D",
          "config": {
            "name": "Conv1",
            "trainable": true,
            "dtype": "float32",
            "filters": 32,
            "kernel_size": [3, 3],
            "strides": [2, 2],
            "padding": "same",
            "data_format": "channels_last",
            "dilation_rate": [1, 1],
            "groups": 1,
            "activation": "linear",
            "use_bias": false,
            "kernel_initializer": {
              "class_name": "GlorotUniform",
              "config": { "seed": null }
            },
            "bias_initializer": { "class_name": "Zeros", "config": {} },
            "kernel_regularizer": null,
            "bias_regularizer": null,
            "activity_regularizer": null,
            "kernel_constraint": null,
            "bias_constraint": null
          },
          "name": "Conv1",
          "inbound_nodes": [[["input_6", 0, 0, {}]]]
        },
        {
          "class_name": "BatchNormalization",
          "config": {
            "name": "bn_Conv1",
            "trainable": true,
            "dtype": "float32",
            "axis": [3],
            "momentum": 0.999,
            "epsilon": 0.001,
            "center": true,
            "scale": true,
            "beta_initializer": { "class_name": "Zeros", "config": {} },
            "gamma_initializer": { "class_name": "Ones", "config": {} },
            "moving_mean_initializer": { "class_name": "Zeros", "config": {} },
            "moving_variance_initializer": {
              "class_name": "Ones",
              "config": {}
            },
            "beta_regularizer": null,
            "gamma_regularizer": null,
            "beta_constraint": null,
            "gamma_constraint": null
          },
          "name": "bn_Conv1",
          "inbound_nodes": [[["Conv1", 0, 0, {}]]]
        },
        {
          "class_name": "ReLU",
          "config": {
            "name": "Conv1_relu",
            "trainable": true,
            "dtype": "float32",
            "max_value": 6.0,
            "negative_slope": 0.0,
            "threshold": 0.0
          },
          "name": "Conv1_relu",
          "inbound_nodes": [[["bn_Conv1", 0, 0, {}]]]
        },
        {
          "class_name": "DepthwiseConv2D",
          "config": {
            "name": "expanded_conv_depthwise",
            "trainable": true,
            "dtype": "float32",
            "kernel_size": [3, 3],
            "strides": [1, 1],
            "padding": "same",
            "data_format": "channels_last",
            "dilation_rate": [1, 1],
            "groups": 1,
            "activation": "linear",
            "use_bias": false,
            "bias_initializer": { "class_name": "Zeros", "config": {} },
            "bias_regularizer": null,
            "activity_regularizer": null,
            "bias_constraint": null,
            "depth_multiplier": 1,
            "depthwise_initializer": {
              "class_name": "GlorotUniform",
              "config": { "seed": null }
            },
            "depthwise_regularizer": null,
            "depthwise_constraint": null
          },
          "name": "expanded_conv_depthwise",
          "inbound_nodes": [[["Conv1_relu", 0, 0, {}]]]
        },
        {
          "class_name": "BatchNormalization",
          "config": {
            "name": "expanded_conv_depthwise_BN",
            "trainable": true,
            "dtype": "float32",
            "axis": [3],
            "momentum": 0.999,
            "epsilon": 0.001,
            "center": true,
            "scale": true,
            "beta_initializer": { "class_name": "Zeros", "config": {} },
            "gamma_initializer": { "class_name": "Ones", "config": {} },
            "moving_mean_initializer": { "class_name": "Zeros", "config": {} },
            "moving_variance_initializer": {
              "class_name": "Ones",
              "config": {}
            },
            "beta_regularizer": null,
            "gamma_regularizer": null,
            "beta_constraint": null,
            "gamma_constraint": null
          },
          "name": "expanded_conv_depthwise_BN",
          "inbound_nodes": [[["expanded_conv_depthwise", 0, 0, {}]]]
        },
        {
          "class_name": "ReLU",
          "config": {
            "name": "expanded_conv_depthwise_relu",
            "trainable": true,
            "dtype": "float32",
            "max_value": 6.0,
            "negative_slope": 0.0,
            "threshold": 0.0
          },
          "name": "expanded_conv_depthwise_relu",
          "inbound_nodes": [[["expanded_conv_depthwise_BN", 0, 0, {}]]]
        },
        {
          "class_name": "Conv2D",
          "config": {
            "name": "expanded_conv_project",
            "trainable": true,
            "dtype": "float32",
            "filters": 16,
            "kernel_size": [1, 1],
            "strides": [1, 1],
            "padding": "same",
            "data_format": "channels_last",
            "dilation_rate": [1, 1],
            "groups": 1,
            "activation": "linear",
            "use_bias": false,
            "kernel_initializer": {
              "class_name": "GlorotUniform",
              "config": { "seed": null }
            },
            "bias_initializer": { "class_name": "Zeros", "config": {} },
            "kernel_regularizer": null,
            "bias_regularizer": null,
            "activity_regularizer": null,
            "kernel_constraint": null,
            "bias_constraint": null
          },
          "name": "expanded_conv_project",
          "inbound_nodes": [[["expanded_conv_depthwise_relu", 0, 0, {}]]]
        },
        {
          "class_name": "BatchNormalization",
          "config": {
            "name": "expanded_conv_project_BN",
            "trainable": true,
            "dtype": "float32",
            "axis": [3],
            "momentum": 0.999,
            "epsilon": 0.001,
            "center": true,
            "scale": true,
            "beta_initializer": { "class_name": "Zeros", "config": {} },
            "gamma_initializer": { "class_name": "Ones", "config": {} },
            "moving_mean_initializer": { "class_name": "Zeros", "config": {} },
            "moving_variance_initializer": {
              "class_name": "Ones",
              "config": {}
            },
            "beta_regularizer": null,
            "gamma_regularizer": null,
            "beta_constraint": null,
            "gamma_constraint": null
          },
          "name": "expanded_conv_project_BN",
          "inbound_nodes": [[["expanded_conv_project", 0, 0, {}]]]
        },
        {
          "class_name": "Conv2D",
          "config": {
            "name": "block_1_expand",
            "trainable": true,
            "dtype": "float32",
            "filters": 96,
            "kernel_size": [1, 1],
            "strides": [1, 1],
            "padding": "same",
            "data_format": "channels_last",
            "dilation_rate": [1, 1],
            "groups": 1,
            "activation": "linear",
            "use_bias": false,
            "kernel_initializer": {
              "class_name": "GlorotUniform",
              "config": { "seed": null }
            },
            "bias_initializer": { "class_name": "Zeros", "config": {} },
            "kernel_regularizer": null,
            "bias_regularizer": null,
            "activity_regularizer": null,
            "kernel_constraint": null,
            "bias_constraint": null
          },
          "name": "block_1_expand",
          "inbound_nodes": [[["expanded_conv_project_BN", 0, 0, {}]]]
        },
        {
          "class_name": "BatchNormalization",
          "config": {
            "name": "block_1_expand_BN",
            "trainable": true,
            "dtype": "float32",
            "axis": [3],
            "momentum": 0.999,
            "epsilon": 0.001,
            "center": true,
            "scale": true,
            "beta_initializer": { "class_name": "Zeros", "config": {} },
            "gamma_initializer": { "class_name": "Ones", "config": {} },
            "moving_mean_initializer": { "class_name": "Zeros", "config": {} },
            "moving_variance_initializer": {
              "class_name": "Ones",
              "config": {}
            },
            "beta_regularizer": null,
            "gamma_regularizer": null,
            "beta_constraint": null,
            "gamma_constraint": null
          },
          "name": "block_1_expand_BN",
          "inbound_nodes": [[["block_1_expand", 0, 0, {}]]]
        },
        {
          "class_name": "ReLU",
          "config": {
            "name": "block_1_expand_relu",
            "trainable": true,
            "dtype": "float32",
            "max_value": 6.0,
            "negative_slope": 0.0,
            "threshold": 0.0
          },
          "name": "block_1_expand_relu",
          "inbound_nodes": [[["block_1_expand_BN", 0, 0, {}]]]
        },
        {
          "class_name": "ZeroPadding2D",
          "config": {
            "name": "block_1_pad",
            "trainable": true,
            "dtype": "float32",
            "padding": [
              [0, 1],
              [0, 1]
            ],
            "data_format": "channels_last"
          },
          "name": "block_1_pad",
          "inbound_nodes": [[["block_1_expand_relu", 0, 0, {}]]]
        },
        {
          "class_name": "DepthwiseConv2D",
          "config": {
            "name": "block_1_depthwise",
            "trainable": true,
            "dtype": "float32",
            "kernel_size": [3, 3],
            "strides": [2, 2],
            "padding": "valid",
            "data_format": "channels_last",
            "dilation_rate": [1, 1],
            "groups": 1,
            "activation": "linear",
            "use_bias": false,
            "bias_initializer": { "class_name": "Zeros", "config": {} },
            "bias_regularizer": null,
            "activity_regularizer": null,
            "bias_constraint": null,
            "depth_multiplier": 1,
            "depthwise_initializer": {
              "class_name": "GlorotUniform",
              "config": { "seed": null }
            },
            "depthwise_regularizer": null,
            "depthwise_constraint": null
          },
          "name": "block_1_depthwise",
          "inbound_nodes": [[["block_1_pad", 0, 0, {}]]]
        },
        {
          "class_name": "BatchNormalization",
          "config": {
            "name": "block_1_depthwise_BN",
            "trainable": true,
            "dtype": "float32",
            "axis": [3],
            "momentum": 0.999,
            "epsilon": 0.001,
            "center": true,
            "scale": true,
            "beta_initializer": { "class_name": "Zeros", "config": {} },
            "gamma_initializer": { "class_name": "Ones", "config": {} },
            "moving_mean_initializer": { "class_name": "Zeros", "config": {} },
            "moving_variance_initializer": {
              "class_name": "Ones",
              "config": {}
            },
            "beta_regularizer": null,
            "gamma_regularizer": null,
            "beta_constraint": null,
            "gamma_constraint": null
          },
          "name": "block_1_depthwise_BN",
          "inbound_nodes": [[["block_1_depthwise", 0, 0, {}]]]
        },
        {
          "class_name": "ReLU",
          "config": {
            "name": "block_1_depthwise_relu",
            "trainable": true,
            "dtype": "float32",
            "max_value": 6.0,
            "negative_slope": 0.0,
            "threshold": 0.0
          },
          "name": "block_1_depthwise_relu",
          "inbound_nodes": [[["block_1_depthwise_BN", 0, 0, {}]]]
        },
        {
          "class_name": "Conv2D",
          "config": {
            "name": "block_1_project",
            "trainable": true,
            "dtype": "float32",
            "filters": 24,
            "kernel_size": [1, 1],
            "strides": [1, 1],
            "padding": "same",
            "data_format": "channels_last",
            "dilation_rate": [1, 1],
            "groups": 1,
            "activation": "linear",
            "use_bias": false,
            "kernel_initializer": {
              "class_name": "GlorotUniform",
              "config": { "seed": null }
            },
            "bias_initializer": { "class_name": "Zeros", "config": {} },
            "kernel_regularizer": null,
            "bias_regularizer": null,
            "activity_regularizer": null,
            "kernel_constraint": null,
            "bias_constraint": null
          },
          "name": "block_1_project",
          "inbound_nodes": [[["block_1_depthwise_relu", 0, 0, {}]]]
        },
        {
          "class_name": "BatchNormalization",
          "config": {
            "name": "block_1_project_BN",
            "trainable": true,
            "dtype": "float32",
            "axis": [3],
            "momentum": 0.999,
            "epsilon": 0.001,
            "center": true,
            "scale": true,
            "beta_initializer": { "class_name": "Zeros", "config": {} },
            "gamma_initializer": { "class_name": "Ones", "config": {} },
            "moving_mean_initializer": { "class_name": "Zeros", "config": {} },
            "moving_variance_initializer": {
              "class_name": "Ones",
              "config": {}
            },
            "beta_regularizer": null,
            "gamma_regularizer": null,
            "beta_constraint": null,
            "gamma_constraint": null
          },
          "name": "block_1_project_BN",
          "inbound_nodes": [[["block_1_project", 0, 0, {}]]]
        },
        {
          "class_name": "Conv2D",
          "config": {
            "name": "block_2_expand",
            "trainable": true,
            "dtype": "float32",
            "filters": 144,
            "kernel_size": [1, 1],
            "strides": [1, 1],
            "padding": "same",
            "data_format": "channels_last",
            "dilation_rate": [1, 1],
            "groups": 1,
            "activation": "linear",
            "use_bias": false,
            "kernel_initializer": {
              "class_name": "GlorotUniform",
              "config": { "seed": null }
            },
            "bias_initializer": { "class_name": "Zeros", "config": {} },
            "kernel_regularizer": null,
            "bias_regularizer": null,
            "activity_regularizer": null,
            "kernel_constraint": null,
            "bias_constraint": null
          },
          "name": "block_2_expand",
          "inbound_nodes": [[["block_1_project_BN", 0, 0, {}]]]
        },
        {
          "class_name": "BatchNormalization",
          "config": {
            "name": "block_2_expand_BN",
            "trainable": true,
            "dtype": "float32",
            "axis": [3],
            "momentum": 0.999,
            "epsilon": 0.001,
            "center": true,
            "scale": true,
            "beta_initializer": { "class_name": "Zeros", "config": {} },
            "gamma_initializer": { "class_name": "Ones", "config": {} },
            "moving_mean_initializer": { "class_name": "Zeros", "config": {} },
            "moving_variance_initializer": {
              "class_name": "Ones",
              "config": {}
            },
            "beta_regularizer": null,
            "gamma_regularizer": null,
            "beta_constraint": null,
            "gamma_constraint": null
          },
          "name": "block_2_expand_BN",
          "inbound_nodes": [[["block_2_expand", 0, 0, {}]]]
        },
        {
          "class_name": "ReLU",
          "config": {
            "name": "block_2_expand_relu",
            "trainable": true,
            "dtype": "float32",
            "max_value": 6.0,
            "negative_slope": 0.0,
            "threshold": 0.0
          },
          "name": "block_2_expand_relu",
          "inbound_nodes": [[["block_2_expand_BN", 0, 0, {}]]]
        },
        {
          "class_name": "DepthwiseConv2D",
          "config": {
            "name": "block_2_depthwise",
            "trainable": true,
            "dtype": "float32",
            "kernel_size": [3, 3],
            "strides": [1, 1],
            "padding": "same",
            "data_format": "channels_last",
            "dilation_rate": [1, 1],
            "groups": 1,
            "activation": "linear",
            "use_bias": false,
            "bias_initializer": { "class_name": "Zeros", "config": {} },
            "bias_regularizer": null,
            "activity_regularizer": null,
            "bias_constraint": null,
            "depth_multiplier": 1,
            "depthwise_initializer": {
              "class_name": "GlorotUniform",
              "config": { "seed": null }
            },
            "depthwise_regularizer": null,
            "depthwise_constraint": null
          },
          "name": "block_2_depthwise",
          "inbound_nodes": [[["block_2_expand_relu", 0, 0, {}]]]
        },
        {
          "class_name": "BatchNormalization",
          "config": {
            "name": "block_2_depthwise_BN",
            "trainable": true,
            "dtype": "float32",
            "axis": [3],
            "momentum": 0.999,
            "epsilon": 0.001,
            "center": true,
            "scale": true,
            "beta_initializer": { "class_name": "Zeros", "config": {} },
            "gamma_initializer": { "class_name": "Ones", "config": {} },
            "moving_mean_initializer": { "class_name": "Zeros", "config": {} },
            "moving_variance_initializer": {
              "class_name": "Ones",
              "config": {}
            },
            "beta_regularizer": null,
            "gamma_regularizer": null,
            "beta_constraint": null,
            "gamma_constraint": null
          },
          "name": "block_2_depthwise_BN",
          "inbound_nodes": [[["block_2_depthwise", 0, 0, {}]]]
        },
        {
          "class_name": "ReLU",
          "config": {
            "name": "block_2_depthwise_relu",
            "trainable": true,
            "dtype": "float32",
            "max_value": 6.0,
            "negative_slope": 0.0,
            "threshold": 0.0
          },
          "name": "block_2_depthwise_relu",
          "inbound_nodes": [[["block_2_depthwise_BN", 0, 0, {}]]]
        },
        {
          "class_name": "Conv2D",
          "config": {
            "name": "block_2_project",
            "trainable": true,
            "dtype": "float32",
            "filters": 24,
            "kernel_size": [1, 1],
            "strides": [1, 1],
            "padding": "same",
            "data_format": "channels_last",
            "dilation_rate": [1, 1],
            "groups": 1,
            "activation": "linear",
            "use_bias": false,
            "kernel_initializer": {
              "class_name": "GlorotUniform",
              "config": { "seed": null }
            },
            "bias_initializer": { "class_name": "Zeros", "config": {} },
            "kernel_regularizer": null,
            "bias_regularizer": null,
            "activity_regularizer": null,
            "kernel_constraint": null,
            "bias_constraint": null
          },
          "name": "block_2_project",
          "inbound_nodes": [[["block_2_depthwise_relu", 0, 0, {}]]]
        },
        {
          "class_name": "BatchNormalization",
          "config": {
            "name": "block_2_project_BN",
            "trainable": true,
            "dtype": "float32",
            "axis": [3],
            "momentum": 0.999,
            "epsilon": 0.001,
            "center": true,
            "scale": true,
            "beta_initializer": { "class_name": "Zeros", "config": {} },
            "gamma_initializer": { "class_name": "Ones", "config": {} },
            "moving_mean_initializer": { "class_name": "Zeros", "config": {} },
            "moving_variance_initializer": {
              "class_name": "Ones",
              "config": {}
            },
            "beta_regularizer": null,
            "gamma_regularizer": null,
            "beta_constraint": null,
            "gamma_constraint": null
          },
          "name": "block_2_project_BN",
          "inbound_nodes": [[["block_2_project", 0, 0, {}]]]
        },
        {
          "class_name": "Add",
          "config": {
            "name": "block_2_add",
            "trainable": true,
            "dtype": "float32"
          },
          "name": "block_2_add",
          "inbound_nodes": [
            [
              ["block_1_project_BN", 0, 0, {}],
              ["block_2_project_BN", 0, 0, {}]
            ]
          ]
        },
        {
          "class_name": "Conv2D",
          "config": {
            "name": "block_3_expand",
            "trainable": true,
            "dtype": "float32",
            "filters": 144,
            "kernel_size": [1, 1],
            "strides": [1, 1],
            "padding": "same",
            "data_format": "channels_last",
            "dilation_rate": [1, 1],
            "groups": 1,
            "activation": "linear",
            "use_bias": false,
            "kernel_initializer": {
              "class_name": "GlorotUniform",
              "config": { "seed": null }
            },
            "bias_initializer": { "class_name": "Zeros", "config": {} },
            "kernel_regularizer": null,
            "bias_regularizer": null,
            "activity_regularizer": null,
            "kernel_constraint": null,
            "bias_constraint": null
          },
          "name": "block_3_expand",
          "inbound_nodes": [[["block_2_add", 0, 0, {}]]]
        },
        {
          "class_name": "BatchNormalization",
          "config": {
            "name": "block_3_expand_BN",
            "trainable": true,
            "dtype": "float32",
            "axis": [3],
            "momentum": 0.999,
            "epsilon": 0.001,
            "center": true,
            "scale": true,
            "beta_initializer": { "class_name": "Zeros", "config": {} },
            "gamma_initializer": { "class_name": "Ones", "config": {} },
            "moving_mean_initializer": { "class_name": "Zeros", "config": {} },
            "moving_variance_initializer": {
              "class_name": "Ones",
              "config": {}
            },
            "beta_regularizer": null,
            "gamma_regularizer": null,
            "beta_constraint": null,
            "gamma_constraint": null
          },
          "name": "block_3_expand_BN",
          "inbound_nodes": [[["block_3_expand", 0, 0, {}]]]
        },
        {
          "class_name": "ReLU",
          "config": {
            "name": "block_3_expand_relu",
            "trainable": true,
            "dtype": "float32",
            "max_value": 6.0,
            "negative_slope": 0.0,
            "threshold": 0.0
          },
          "name": "block_3_expand_relu",
          "inbound_nodes": [[["block_3_expand_BN", 0, 0, {}]]]
        },
        {
          "class_name": "ZeroPadding2D",
          "config": {
            "name": "block_3_pad",
            "trainable": true,
            "dtype": "float32",
            "padding": [
              [0, 1],
              [0, 1]
            ],
            "data_format": "channels_last"
          },
          "name": "block_3_pad",
          "inbound_nodes": [[["block_3_expand_relu", 0, 0, {}]]]
        },
        {
          "class_name": "DepthwiseConv2D",
          "config": {
            "name": "block_3_depthwise",
            "trainable": true,
            "dtype": "float32",
            "kernel_size": [3, 3],
            "strides": [2, 2],
            "padding": "valid",
            "data_format": "channels_last",
            "dilation_rate": [1, 1],
            "groups": 1,
            "activation": "linear",
            "use_bias": false,
            "bias_initializer": { "class_name": "Zeros", "config": {} },
            "bias_regularizer": null,
            "activity_regularizer": null,
            "bias_constraint": null,
            "depth_multiplier": 1,
            "depthwise_initializer": {
              "class_name": "GlorotUniform",
              "config": { "seed": null }
            },
            "depthwise_regularizer": null,
            "depthwise_constraint": null
          },
          "name": "block_3_depthwise",
          "inbound_nodes": [[["block_3_pad", 0, 0, {}]]]
        },
        {
          "class_name": "BatchNormalization",
          "config": {
            "name": "block_3_depthwise_BN",
            "trainable": true,
            "dtype": "float32",
            "axis": [3],
            "momentum": 0.999,
            "epsilon": 0.001,
            "center": true,
            "scale": true,
            "beta_initializer": { "class_name": "Zeros", "config": {} },
            "gamma_initializer": { "class_name": "Ones", "config": {} },
            "moving_mean_initializer": { "class_name": "Zeros", "config": {} },
            "moving_variance_initializer": {
              "class_name": "Ones",
              "config": {}
            },
            "beta_regularizer": null,
            "gamma_regularizer": null,
            "beta_constraint": null,
            "gamma_constraint": null
          },
          "name": "block_3_depthwise_BN",
          "inbound_nodes": [[["block_3_depthwise", 0, 0, {}]]]
        },
        {
          "class_name": "ReLU",
          "config": {
            "name": "block_3_depthwise_relu",
            "trainable": true,
            "dtype": "float32",
            "max_value": 6.0,
            "negative_slope": 0.0,
            "threshold": 0.0
          },
          "name": "block_3_depthwise_relu",
          "inbound_nodes": [[["block_3_depthwise_BN", 0, 0, {}]]]
        },
        {
          "class_name": "Conv2D",
          "config": {
            "name": "block_3_project",
            "trainable": true,
            "dtype": "float32",
            "filters": 32,
            "kernel_size": [1, 1],
            "strides": [1, 1],
            "padding": "same",
            "data_format": "channels_last",
            "dilation_rate": [1, 1],
            "groups": 1,
            "activation": "linear",
            "use_bias": false,
            "kernel_initializer": {
              "class_name": "GlorotUniform",
              "config": { "seed": null }
            },
            "bias_initializer": { "class_name": "Zeros", "config": {} },
            "kernel_regularizer": null,
            "bias_regularizer": null,
            "activity_regularizer": null,
            "kernel_constraint": null,
            "bias_constraint": null
          },
          "name": "block_3_project",
          "inbound_nodes": [[["block_3_depthwise_relu", 0, 0, {}]]]
        },
        {
          "class_name": "BatchNormalization",
          "config": {
            "name": "block_3_project_BN",
            "trainable": true,
            "dtype": "float32",
            "axis": [3],
            "momentum": 0.999,
            "epsilon": 0.001,
            "center": true,
            "scale": true,
            "beta_initializer": { "class_name": "Zeros", "config": {} },
            "gamma_initializer": { "class_name": "Ones", "config": {} },
            "moving_mean_initializer": { "class_name": "Zeros", "config": {} },
            "moving_variance_initializer": {
              "class_name": "Ones",
              "config": {}
            },
            "beta_regularizer": null,
            "gamma_regularizer": null,
            "beta_constraint": null,
            "gamma_constraint": null
          },
          "name": "block_3_project_BN",
          "inbound_nodes": [[["block_3_project", 0, 0, {}]]]
        },
        {
          "class_name": "Conv2D",
          "config": {
            "name": "block_4_expand",
            "trainable": true,
            "dtype": "float32",
            "filters": 192,
            "kernel_size": [1, 1],
            "strides": [1, 1],
            "padding": "same",
            "data_format": "channels_last",
            "dilation_rate": [1, 1],
            "groups": 1,
            "activation": "linear",
            "use_bias": false,
            "kernel_initializer": {
              "class_name": "GlorotUniform",
              "config": { "seed": null }
            },
            "bias_initializer": { "class_name": "Zeros", "config": {} },
            "kernel_regularizer": null,
            "bias_regularizer": null,
            "activity_regularizer": null,
            "kernel_constraint": null,
            "bias_constraint": null
          },
          "name": "block_4_expand",
          "inbound_nodes": [[["block_3_project_BN", 0, 0, {}]]]
        },
        {
          "class_name": "BatchNormalization",
          "config": {
            "name": "block_4_expand_BN",
            "trainable": true,
            "dtype": "float32",
            "axis": [3],
            "momentum": 0.999,
            "epsilon": 0.001,
            "center": true,
            "scale": true,
            "beta_initializer": { "class_name": "Zeros", "config": {} },
            "gamma_initializer": { "class_name": "Ones", "config": {} },
            "moving_mean_initializer": { "class_name": "Zeros", "config": {} },
            "moving_variance_initializer": {
              "class_name": "Ones",
              "config": {}
            },
            "beta_regularizer": null,
            "gamma_regularizer": null,
            "beta_constraint": null,
            "gamma_constraint": null
          },
          "name": "block_4_expand_BN",
          "inbound_nodes": [[["block_4_expand", 0, 0, {}]]]
        },
        {
          "class_name": "ReLU",
          "config": {
            "name": "block_4_expand_relu",
            "trainable": true,
            "dtype": "float32",
            "max_value": 6.0,
            "negative_slope": 0.0,
            "threshold": 0.0
          },
          "name": "block_4_expand_relu",
          "inbound_nodes": [[["block_4_expand_BN", 0, 0, {}]]]
        },
        {
          "class_name": "DepthwiseConv2D",
          "config": {
            "name": "block_4_depthwise",
            "trainable": true,
            "dtype": "float32",
            "kernel_size": [3, 3],
            "strides": [1, 1],
            "padding": "same",
            "data_format": "channels_last",
            "dilation_rate": [1, 1],
            "groups": 1,
            "activation": "linear",
            "use_bias": false,
            "bias_initializer": { "class_name": "Zeros", "config": {} },
            "bias_regularizer": null,
            "activity_regularizer": null,
            "bias_constraint": null,
            "depth_multiplier": 1,
            "depthwise_initializer": {
              "class_name": "GlorotUniform",
              "config": { "seed": null }
            },
            "depthwise_regularizer": null,
            "depthwise_constraint": null
          },
          "name": "block_4_depthwise",
          "inbound_nodes": [[["block_4_expand_relu", 0, 0, {}]]]
        },
        {
          "class_name": "BatchNormalization",
          "config": {
            "name": "block_4_depthwise_BN",
            "trainable": true,
            "dtype": "float32",
            "axis": [3],
            "momentum": 0.999,
            "epsilon": 0.001,
            "center": true,
            "scale": true,
            "beta_initializer": { "class_name": "Zeros", "config": {} },
            "gamma_initializer": { "class_name": "Ones", "config": {} },
            "moving_mean_initializer": { "class_name": "Zeros", "config": {} },
            "moving_variance_initializer": {
              "class_name": "Ones",
              "config": {}
            },
            "beta_regularizer": null,
            "gamma_regularizer": null,
            "beta_constraint": null,
            "gamma_constraint": null
          },
          "name": "block_4_depthwise_BN",
          "inbound_nodes": [[["block_4_depthwise", 0, 0, {}]]]
        },
        {
          "class_name": "ReLU",
          "config": {
            "name": "block_4_depthwise_relu",
            "trainable": true,
            "dtype": "float32",
            "max_value": 6.0,
            "negative_slope": 0.0,
            "threshold": 0.0
          },
          "name": "block_4_depthwise_relu",
          "inbound_nodes": [[["block_4_depthwise_BN", 0, 0, {}]]]
        },
        {
          "class_name": "Conv2D",
          "config": {
            "name": "block_4_project",
            "trainable": true,
            "dtype": "float32",
            "filters": 32,
            "kernel_size": [1, 1],
            "strides": [1, 1],
            "padding": "same",
            "data_format": "channels_last",
            "dilation_rate": [1, 1],
            "groups": 1,
            "activation": "linear",
            "use_bias": false,
            "kernel_initializer": {
              "class_name": "GlorotUniform",
              "config": { "seed": null }
            },
            "bias_initializer": { "class_name": "Zeros", "config": {} },
            "kernel_regularizer": null,
            "bias_regularizer": null,
            "activity_regularizer": null,
            "kernel_constraint": null,
            "bias_constraint": null
          },
          "name": "block_4_project",
          "inbound_nodes": [[["block_4_depthwise_relu", 0, 0, {}]]]
        },
        {
          "class_name": "BatchNormalization",
          "config": {
            "name": "block_4_project_BN",
            "trainable": true,
            "dtype": "float32",
            "axis": [3],
            "momentum": 0.999,
            "epsilon": 0.001,
            "center": true,
            "scale": true,
            "beta_initializer": { "class_name": "Zeros", "config": {} },
            "gamma_initializer": { "class_name": "Ones", "config": {} },
            "moving_mean_initializer": { "class_name": "Zeros", "config": {} },
            "moving_variance_initializer": {
              "class_name": "Ones",
              "config": {}
            },
            "beta_regularizer": null,
            "gamma_regularizer": null,
            "beta_constraint": null,
            "gamma_constraint": null
          },
          "name": "block_4_project_BN",
          "inbound_nodes": [[["block_4_project", 0, 0, {}]]]
        },
        {
          "class_name": "Add",
          "config": {
            "name": "block_4_add",
            "trainable": true,
            "dtype": "float32"
          },
          "name": "block_4_add",
          "inbound_nodes": [
            [
              ["block_3_project_BN", 0, 0, {}],
              ["block_4_project_BN", 0, 0, {}]
            ]
          ]
        },
        {
          "class_name": "Conv2D",
          "config": {
            "name": "block_5_expand",
            "trainable": true,
            "dtype": "float32",
            "filters": 192,
            "kernel_size": [1, 1],
            "strides": [1, 1],
            "padding": "same",
            "data_format": "channels_last",
            "dilation_rate": [1, 1],
            "groups": 1,
            "activation": "linear",
            "use_bias": false,
            "kernel_initializer": {
              "class_name": "GlorotUniform",
              "config": { "seed": null }
            },
            "bias_initializer": { "class_name": "Zeros", "config": {} },
            "kernel_regularizer": null,
            "bias_regularizer": null,
            "activity_regularizer": null,
            "kernel_constraint": null,
            "bias_constraint": null
          },
          "name": "block_5_expand",
          "inbound_nodes": [[["block_4_add", 0, 0, {}]]]
        },
        {
          "class_name": "BatchNormalization",
          "config": {
            "name": "block_5_expand_BN",
            "trainable": true,
            "dtype": "float32",
            "axis": [3],
            "momentum": 0.999,
            "epsilon": 0.001,
            "center": true,
            "scale": true,
            "beta_initializer": { "class_name": "Zeros", "config": {} },
            "gamma_initializer": { "class_name": "Ones", "config": {} },
            "moving_mean_initializer": { "class_name": "Zeros", "config": {} },
            "moving_variance_initializer": {
              "class_name": "Ones",
              "config": {}
            },
            "beta_regularizer": null,
            "gamma_regularizer": null,
            "beta_constraint": null,
            "gamma_constraint": null
          },
          "name": "block_5_expand_BN",
          "inbound_nodes": [[["block_5_expand", 0, 0, {}]]]
        },
        {
          "class_name": "ReLU",
          "config": {
            "name": "block_5_expand_relu",
            "trainable": true,
            "dtype": "float32",
            "max_value": 6.0,
            "negative_slope": 0.0,
            "threshold": 0.0
          },
          "name": "block_5_expand_relu",
          "inbound_nodes": [[["block_5_expand_BN", 0, 0, {}]]]
        },
        {
          "class_name": "DepthwiseConv2D",
          "config": {
            "name": "block_5_depthwise",
            "trainable": true,
            "dtype": "float32",
            "kernel_size": [3, 3],
            "strides": [1, 1],
            "padding": "same",
            "data_format": "channels_last",
            "dilation_rate": [1, 1],
            "groups": 1,
            "activation": "linear",
            "use_bias": false,
            "bias_initializer": { "class_name": "Zeros", "config": {} },
            "bias_regularizer": null,
            "activity_regularizer": null,
            "bias_constraint": null,
            "depth_multiplier": 1,
            "depthwise_initializer": {
              "class_name": "GlorotUniform",
              "config": { "seed": null }
            },
            "depthwise_regularizer": null,
            "depthwise_constraint": null
          },
          "name": "block_5_depthwise",
          "inbound_nodes": [[["block_5_expand_relu", 0, 0, {}]]]
        },
        {
          "class_name": "BatchNormalization",
          "config": {
            "name": "block_5_depthwise_BN",
            "trainable": true,
            "dtype": "float32",
            "axis": [3],
            "momentum": 0.999,
            "epsilon": 0.001,
            "center": true,
            "scale": true,
            "beta_initializer": { "class_name": "Zeros", "config": {} },
            "gamma_initializer": { "class_name": "Ones", "config": {} },
            "moving_mean_initializer": { "class_name": "Zeros", "config": {} },
            "moving_variance_initializer": {
              "class_name": "Ones",
              "config": {}
            },
            "beta_regularizer": null,
            "gamma_regularizer": null,
            "beta_constraint": null,
            "gamma_constraint": null
          },
          "name": "block_5_depthwise_BN",
          "inbound_nodes": [[["block_5_depthwise", 0, 0, {}]]]
        },
        {
          "class_name": "ReLU",
          "config": {
            "name": "block_5_depthwise_relu",
            "trainable": true,
            "dtype": "float32",
            "max_value": 6.0,
            "negative_slope": 0.0,
            "threshold": 0.0
          },
          "name": "block_5_depthwise_relu",
          "inbound_nodes": [[["block_5_depthwise_BN", 0, 0, {}]]]
        },
        {
          "class_name": "Conv2D",
          "config": {
            "name": "block_5_project",
            "trainable": true,
            "dtype": "float32",
            "filters": 32,
            "kernel_size": [1, 1],
            "strides": [1, 1],
            "padding": "same",
            "data_format": "channels_last",
            "dilation_rate": [1, 1],
            "groups": 1,
            "activation": "linear",
            "use_bias": false,
            "kernel_initializer": {
              "class_name": "GlorotUniform",
              "config": { "seed": null }
            },
            "bias_initializer": { "class_name": "Zeros", "config": {} },
            "kernel_regularizer": null,
            "bias_regularizer": null,
            "activity_regularizer": null,
            "kernel_constraint": null,
            "bias_constraint": null
          },
          "name": "block_5_project",
          "inbound_nodes": [[["block_5_depthwise_relu", 0, 0, {}]]]
        },
        {
          "class_name": "BatchNormalization",
          "config": {
            "name": "block_5_project_BN",
            "trainable": true,
            "dtype": "float32",
            "axis": [3],
            "momentum": 0.999,
            "epsilon": 0.001,
            "center": true,
            "scale": true,
            "beta_initializer": { "class_name": "Zeros", "config": {} },
            "gamma_initializer": { "class_name": "Ones", "config": {} },
            "moving_mean_initializer": { "class_name": "Zeros", "config": {} },
            "moving_variance_initializer": {
              "class_name": "Ones",
              "config": {}
            },
            "beta_regularizer": null,
            "gamma_regularizer": null,
            "beta_constraint": null,
            "gamma_constraint": null
          },
          "name": "block_5_project_BN",
          "inbound_nodes": [[["block_5_project", 0, 0, {}]]]
        },
        {
          "class_name": "Add",
          "config": {
            "name": "block_5_add",
            "trainable": true,
            "dtype": "float32"
          },
          "name": "block_5_add",
          "inbound_nodes": [
            [
              ["block_4_add", 0, 0, {}],
              ["block_5_project_BN", 0, 0, {}]
            ]
          ]
        },
        {
          "class_name": "Conv2D",
          "config": {
            "name": "block_6_expand",
            "trainable": true,
            "dtype": "float32",
            "filters": 192,
            "kernel_size": [1, 1],
            "strides": [1, 1],
            "padding": "same",
            "data_format": "channels_last",
            "dilation_rate": [1, 1],
            "groups": 1,
            "activation": "linear",
            "use_bias": false,
            "kernel_initializer": {
              "class_name": "GlorotUniform",
              "config": { "seed": null }
            },
            "bias_initializer": { "class_name": "Zeros", "config": {} },
            "kernel_regularizer": null,
            "bias_regularizer": null,
            "activity_regularizer": null,
            "kernel_constraint": null,
            "bias_constraint": null
          },
          "name": "block_6_expand",
          "inbound_nodes": [[["block_5_add", 0, 0, {}]]]
        },
        {
          "class_name": "BatchNormalization",
          "config": {
            "name": "block_6_expand_BN",
            "trainable": true,
            "dtype": "float32",
            "axis": [3],
            "momentum": 0.999,
            "epsilon": 0.001,
            "center": true,
            "scale": true,
            "beta_initializer": { "class_name": "Zeros", "config": {} },
            "gamma_initializer": { "class_name": "Ones", "config": {} },
            "moving_mean_initializer": { "class_name": "Zeros", "config": {} },
            "moving_variance_initializer": {
              "class_name": "Ones",
              "config": {}
            },
            "beta_regularizer": null,
            "gamma_regularizer": null,
            "beta_constraint": null,
            "gamma_constraint": null
          },
          "name": "block_6_expand_BN",
          "inbound_nodes": [[["block_6_expand", 0, 0, {}]]]
        },
        {
          "class_name": "ReLU",
          "config": {
            "name": "block_6_expand_relu",
            "trainable": true,
            "dtype": "float32",
            "max_value": 6.0,
            "negative_slope": 0.0,
            "threshold": 0.0
          },
          "name": "block_6_expand_relu",
          "inbound_nodes": [[["block_6_expand_BN", 0, 0, {}]]]
        },
        {
          "class_name": "ZeroPadding2D",
          "config": {
            "name": "block_6_pad",
            "trainable": true,
            "dtype": "float32",
            "padding": [
              [0, 1],
              [0, 1]
            ],
            "data_format": "channels_last"
          },
          "name": "block_6_pad",
          "inbound_nodes": [[["block_6_expand_relu", 0, 0, {}]]]
        },
        {
          "class_name": "DepthwiseConv2D",
          "config": {
            "name": "block_6_depthwise",
            "trainable": true,
            "dtype": "float32",
            "kernel_size": [3, 3],
            "strides": [2, 2],
            "padding": "valid",
            "data_format": "channels_last",
            "dilation_rate": [1, 1],
            "groups": 1,
            "activation": "linear",
            "use_bias": false,
            "bias_initializer": { "class_name": "Zeros", "config": {} },
            "bias_regularizer": null,
            "activity_regularizer": null,
            "bias_constraint": null,
            "depth_multiplier": 1,
            "depthwise_initializer": {
              "class_name": "GlorotUniform",
              "config": { "seed": null }
            },
            "depthwise_regularizer": null,
            "depthwise_constraint": null
          },
          "name": "block_6_depthwise",
          "inbound_nodes": [[["block_6_pad", 0, 0, {}]]]
        },
        {
          "class_name": "BatchNormalization",
          "config": {
            "name": "block_6_depthwise_BN",
            "trainable": true,
            "dtype": "float32",
            "axis": [3],
            "momentum": 0.999,
            "epsilon": 0.001,
            "center": true,
            "scale": true,
            "beta_initializer": { "class_name": "Zeros", "config": {} },
            "gamma_initializer": { "class_name": "Ones", "config": {} },
            "moving_mean_initializer": { "class_name": "Zeros", "config": {} },
            "moving_variance_initializer": {
              "class_name": "Ones",
              "config": {}
            },
            "beta_regularizer": null,
            "gamma_regularizer": null,
            "beta_constraint": null,
            "gamma_constraint": null
          },
          "name": "block_6_depthwise_BN",
          "inbound_nodes": [[["block_6_depthwise", 0, 0, {}]]]
        },
        {
          "class_name": "ReLU",
          "config": {
            "name": "block_6_depthwise_relu",
            "trainable": true,
            "dtype": "float32",
            "max_value": 6.0,
            "negative_slope": 0.0,
            "threshold": 0.0
          },
          "name": "block_6_depthwise_relu",
          "inbound_nodes": [[["block_6_depthwise_BN", 0, 0, {}]]]
        },
        {
          "class_name": "Conv2D",
          "config": {
            "name": "block_6_project",
            "trainable": true,
            "dtype": "float32",
            "filters": 64,
            "kernel_size": [1, 1],
            "strides": [1, 1],
            "padding": "same",
            "data_format": "channels_last",
            "dilation_rate": [1, 1],
            "groups": 1,
            "activation": "linear",
            "use_bias": false,
            "kernel_initializer": {
              "class_name": "GlorotUniform",
              "config": { "seed": null }
            },
            "bias_initializer": { "class_name": "Zeros", "config": {} },
            "kernel_regularizer": null,
            "bias_regularizer": null,
            "activity_regularizer": null,
            "kernel_constraint": null,
            "bias_constraint": null
          },
          "name": "block_6_project",
          "inbound_nodes": [[["block_6_depthwise_relu", 0, 0, {}]]]
        },
        {
          "class_name": "BatchNormalization",
          "config": {
            "name": "block_6_project_BN",
            "trainable": true,
            "dtype": "float32",
            "axis": [3],
            "momentum": 0.999,
            "epsilon": 0.001,
            "center": true,
            "scale": true,
            "beta_initializer": { "class_name": "Zeros", "config": {} },
            "gamma_initializer": { "class_name": "Ones", "config": {} },
            "moving_mean_initializer": { "class_name": "Zeros", "config": {} },
            "moving_variance_initializer": {
              "class_name": "Ones",
              "config": {}
            },
            "beta_regularizer": null,
            "gamma_regularizer": null,
            "beta_constraint": null,
            "gamma_constraint": null
          },
          "name": "block_6_project_BN",
          "inbound_nodes": [[["block_6_project", 0, 0, {}]]]
        },
        {
          "class_name": "Conv2D",
          "config": {
            "name": "block_7_expand",
            "trainable": true,
            "dtype": "float32",
            "filters": 384,
            "kernel_size": [1, 1],
            "strides": [1, 1],
            "padding": "same",
            "data_format": "channels_last",
            "dilation_rate": [1, 1],
            "groups": 1,
            "activation": "linear",
            "use_bias": false,
            "kernel_initializer": {
              "class_name": "GlorotUniform",
              "config": { "seed": null }
            },
            "bias_initializer": { "class_name": "Zeros", "config": {} },
            "kernel_regularizer": null,
            "bias_regularizer": null,
            "activity_regularizer": null,
            "kernel_constraint": null,
            "bias_constraint": null
          },
          "name": "block_7_expand",
          "inbound_nodes": [[["block_6_project_BN", 0, 0, {}]]]
        },
        {
          "class_name": "BatchNormalization",
          "config": {
            "name": "block_7_expand_BN",
            "trainable": true,
            "dtype": "float32",
            "axis": [3],
            "momentum": 0.999,
            "epsilon": 0.001,
            "center": true,
            "scale": true,
            "beta_initializer": { "class_name": "Zeros", "config": {} },
            "gamma_initializer": { "class_name": "Ones", "config": {} },
            "moving_mean_initializer": { "class_name": "Zeros", "config": {} },
            "moving_variance_initializer": {
              "class_name": "Ones",
              "config": {}
            },
            "beta_regularizer": null,
            "gamma_regularizer": null,
            "beta_constraint": null,
            "gamma_constraint": null
          },
          "name": "block_7_expand_BN",
          "inbound_nodes": [[["block_7_expand", 0, 0, {}]]]
        },
        {
          "class_name": "ReLU",
          "config": {
            "name": "block_7_expand_relu",
            "trainable": true,
            "dtype": "float32",
            "max_value": 6.0,
            "negative_slope": 0.0,
            "threshold": 0.0
          },
          "name": "block_7_expand_relu",
          "inbound_nodes": [[["block_7_expand_BN", 0, 0, {}]]]
        },
        {
          "class_name": "DepthwiseConv2D",
          "config": {
            "name": "block_7_depthwise",
            "trainable": true,
            "dtype": "float32",
            "kernel_size": [3, 3],
            "strides": [1, 1],
            "padding": "same",
            "data_format": "channels_last",
            "dilation_rate": [1, 1],
            "groups": 1,
            "activation": "linear",
            "use_bias": false,
            "bias_initializer": { "class_name": "Zeros", "config": {} },
            "bias_regularizer": null,
            "activity_regularizer": null,
            "bias_constraint": null,
            "depth_multiplier": 1,
            "depthwise_initializer": {
              "class_name": "GlorotUniform",
              "config": { "seed": null }
            },
            "depthwise_regularizer": null,
            "depthwise_constraint": null
          },
          "name": "block_7_depthwise",
          "inbound_nodes": [[["block_7_expand_relu", 0, 0, {}]]]
        },
        {
          "class_name": "BatchNormalization",
          "config": {
            "name": "block_7_depthwise_BN",
            "trainable": true,
            "dtype": "float32",
            "axis": [3],
            "momentum": 0.999,
            "epsilon": 0.001,
            "center": true,
            "scale": true,
            "beta_initializer": { "class_name": "Zeros", "config": {} },
            "gamma_initializer": { "class_name": "Ones", "config": {} },
            "moving_mean_initializer": { "class_name": "Zeros", "config": {} },
            "moving_variance_initializer": {
              "class_name": "Ones",
              "config": {}
            },
            "beta_regularizer": null,
            "gamma_regularizer": null,
            "beta_constraint": null,
            "gamma_constraint": null
          },
          "name": "block_7_depthwise_BN",
          "inbound_nodes": [[["block_7_depthwise", 0, 0, {}]]]
        },
        {
          "class_name": "ReLU",
          "config": {
            "name": "block_7_depthwise_relu",
            "trainable": true,
            "dtype": "float32",
            "max_value": 6.0,
            "negative_slope": 0.0,
            "threshold": 0.0
          },
          "name": "block_7_depthwise_relu",
          "inbound_nodes": [[["block_7_depthwise_BN", 0, 0, {}]]]
        },
        {
          "class_name": "Conv2D",
          "config": {
            "name": "block_7_project",
            "trainable": true,
            "dtype": "float32",
            "filters": 64,
            "kernel_size": [1, 1],
            "strides": [1, 1],
            "padding": "same",
            "data_format": "channels_last",
            "dilation_rate": [1, 1],
            "groups": 1,
            "activation": "linear",
            "use_bias": false,
            "kernel_initializer": {
              "class_name": "GlorotUniform",
              "config": { "seed": null }
            },
            "bias_initializer": { "class_name": "Zeros", "config": {} },
            "kernel_regularizer": null,
            "bias_regularizer": null,
            "activity_regularizer": null,
            "kernel_constraint": null,
            "bias_constraint": null
          },
          "name": "block_7_project",
          "inbound_nodes": [[["block_7_depthwise_relu", 0, 0, {}]]]
        },
        {
          "class_name": "BatchNormalization",
          "config": {
            "name": "block_7_project_BN",
            "trainable": true,
            "dtype": "float32",
            "axis": [3],
            "momentum": 0.999,
            "epsilon": 0.001,
            "center": true,
            "scale": true,
            "beta_initializer": { "class_name": "Zeros", "config": {} },
            "gamma_initializer": { "class_name": "Ones", "config": {} },
            "moving_mean_initializer": { "class_name": "Zeros", "config": {} },
            "moving_variance_initializer": {
              "class_name": "Ones",
              "config": {}
            },
            "beta_regularizer": null,
            "gamma_regularizer": null,
            "beta_constraint": null,
            "gamma_constraint": null
          },
          "name": "block_7_project_BN",
          "inbound_nodes": [[["block_7_project", 0, 0, {}]]]
        },
        {
          "class_name": "Add",
          "config": {
            "name": "block_7_add",
            "trainable": true,
            "dtype": "float32"
          },
          "name": "block_7_add",
          "inbound_nodes": [
            [
              ["block_6_project_BN", 0, 0, {}],
              ["block_7_project_BN", 0, 0, {}]
            ]
          ]
        },
        {
          "class_name": "Conv2D",
          "config": {
            "name": "block_8_expand",
            "trainable": true,
            "dtype": "float32",
            "filters": 384,
            "kernel_size": [1, 1],
            "strides": [1, 1],
            "padding": "same",
            "data_format": "channels_last",
            "dilation_rate": [1, 1],
            "groups": 1,
            "activation": "linear",
            "use_bias": false,
            "kernel_initializer": {
              "class_name": "GlorotUniform",
              "config": { "seed": null }
            },
            "bias_initializer": { "class_name": "Zeros", "config": {} },
            "kernel_regularizer": null,
            "bias_regularizer": null,
            "activity_regularizer": null,
            "kernel_constraint": null,
            "bias_constraint": null
          },
          "name": "block_8_expand",
          "inbound_nodes": [[["block_7_add", 0, 0, {}]]]
        },
        {
          "class_name": "BatchNormalization",
          "config": {
            "name": "block_8_expand_BN",
            "trainable": true,
            "dtype": "float32",
            "axis": [3],
            "momentum": 0.999,
            "epsilon": 0.001,
            "center": true,
            "scale": true,
            "beta_initializer": { "class_name": "Zeros", "config": {} },
            "gamma_initializer": { "class_name": "Ones", "config": {} },
            "moving_mean_initializer": { "class_name": "Zeros", "config": {} },
            "moving_variance_initializer": {
              "class_name": "Ones",
              "config": {}
            },
            "beta_regularizer": null,
            "gamma_regularizer": null,
            "beta_constraint": null,
            "gamma_constraint": null
          },
          "name": "block_8_expand_BN",
          "inbound_nodes": [[["block_8_expand", 0, 0, {}]]]
        },
        {
          "class_name": "ReLU",
          "config": {
            "name": "block_8_expand_relu",
            "trainable": true,
            "dtype": "float32",
            "max_value": 6.0,
            "negative_slope": 0.0,
            "threshold": 0.0
          },
          "name": "block_8_expand_relu",
          "inbound_nodes": [[["block_8_expand_BN", 0, 0, {}]]]
        },
        {
          "class_name": "DepthwiseConv2D",
          "config": {
            "name": "block_8_depthwise",
            "trainable": true,
            "dtype": "float32",
            "kernel_size": [3, 3],
            "strides": [1, 1],
            "padding": "same",
            "data_format": "channels_last",
            "dilation_rate": [1, 1],
            "groups": 1,
            "activation": "linear",
            "use_bias": false,
            "bias_initializer": { "class_name": "Zeros", "config": {} },
            "bias_regularizer": null,
            "activity_regularizer": null,
            "bias_constraint": null,
            "depth_multiplier": 1,
            "depthwise_initializer": {
              "class_name": "GlorotUniform",
              "config": { "seed": null }
            },
            "depthwise_regularizer": null,
            "depthwise_constraint": null
          },
          "name": "block_8_depthwise",
          "inbound_nodes": [[["block_8_expand_relu", 0, 0, {}]]]
        },
        {
          "class_name": "BatchNormalization",
          "config": {
            "name": "block_8_depthwise_BN",
            "trainable": true,
            "dtype": "float32",
            "axis": [3],
            "momentum": 0.999,
            "epsilon": 0.001,
            "center": true,
            "scale": true,
            "beta_initializer": { "class_name": "Zeros", "config": {} },
            "gamma_initializer": { "class_name": "Ones", "config": {} },
            "moving_mean_initializer": { "class_name": "Zeros", "config": {} },
            "moving_variance_initializer": {
              "class_name": "Ones",
              "config": {}
            },
            "beta_regularizer": null,
            "gamma_regularizer": null,
            "beta_constraint": null,
            "gamma_constraint": null
          },
          "name": "block_8_depthwise_BN",
          "inbound_nodes": [[["block_8_depthwise", 0, 0, {}]]]
        },
        {
          "class_name": "ReLU",
          "config": {
            "name": "block_8_depthwise_relu",
            "trainable": true,
            "dtype": "float32",
            "max_value": 6.0,
            "negative_slope": 0.0,
            "threshold": 0.0
          },
          "name": "block_8_depthwise_relu",
          "inbound_nodes": [[["block_8_depthwise_BN", 0, 0, {}]]]
        },
        {
          "class_name": "Conv2D",
          "config": {
            "name": "block_8_project",
            "trainable": true,
            "dtype": "float32",
            "filters": 64,
            "kernel_size": [1, 1],
            "strides": [1, 1],
            "padding": "same",
            "data_format": "channels_last",
            "dilation_rate": [1, 1],
            "groups": 1,
            "activation": "linear",
            "use_bias": false,
            "kernel_initializer": {
              "class_name": "GlorotUniform",
              "config": { "seed": null }
            },
            "bias_initializer": { "class_name": "Zeros", "config": {} },
            "kernel_regularizer": null,
            "bias_regularizer": null,
            "activity_regularizer": null,
            "kernel_constraint": null,
            "bias_constraint": null
          },
          "name": "block_8_project",
          "inbound_nodes": [[["block_8_depthwise_relu", 0, 0, {}]]]
        },
        {
          "class_name": "BatchNormalization",
          "config": {
            "name": "block_8_project_BN",
            "trainable": true,
            "dtype": "float32",
            "axis": [3],
            "momentum": 0.999,
            "epsilon": 0.001,
            "center": true,
            "scale": true,
            "beta_initializer": { "class_name": "Zeros", "config": {} },
            "gamma_initializer": { "class_name": "Ones", "config": {} },
            "moving_mean_initializer": { "class_name": "Zeros", "config": {} },
            "moving_variance_initializer": {
              "class_name": "Ones",
              "config": {}
            },
            "beta_regularizer": null,
            "gamma_regularizer": null,
            "beta_constraint": null,
            "gamma_constraint": null
          },
          "name": "block_8_project_BN",
          "inbound_nodes": [[["block_8_project", 0, 0, {}]]]
        },
        {
          "class_name": "Add",
          "config": {
            "name": "block_8_add",
            "trainable": true,
            "dtype": "float32"
          },
          "name": "block_8_add",
          "inbound_nodes": [
            [
              ["block_7_add", 0, 0, {}],
              ["block_8_project_BN", 0, 0, {}]
            ]
          ]
        },
        {
          "class_name": "Conv2D",
          "config": {
            "name": "block_9_expand",
            "trainable": true,
            "dtype": "float32",
            "filters": 384,
            "kernel_size": [1, 1],
            "strides": [1, 1],
            "padding": "same",
            "data_format": "channels_last",
            "dilation_rate": [1, 1],
            "groups": 1,
            "activation": "linear",
            "use_bias": false,
            "kernel_initializer": {
              "class_name": "GlorotUniform",
              "config": { "seed": null }
            },
            "bias_initializer": { "class_name": "Zeros", "config": {} },
            "kernel_regularizer": null,
            "bias_regularizer": null,
            "activity_regularizer": null,
            "kernel_constraint": null,
            "bias_constraint": null
          },
          "name": "block_9_expand",
          "inbound_nodes": [[["block_8_add", 0, 0, {}]]]
        },
        {
          "class_name": "BatchNormalization",
          "config": {
            "name": "block_9_expand_BN",
            "trainable": true,
            "dtype": "float32",
            "axis": [3],
            "momentum": 0.999,
            "epsilon": 0.001,
            "center": true,
            "scale": true,
            "beta_initializer": { "class_name": "Zeros", "config": {} },
            "gamma_initializer": { "class_name": "Ones", "config": {} },
            "moving_mean_initializer": { "class_name": "Zeros", "config": {} },
            "moving_variance_initializer": {
              "class_name": "Ones",
              "config": {}
            },
            "beta_regularizer": null,
            "gamma_regularizer": null,
            "beta_constraint": null,
            "gamma_constraint": null
          },
          "name": "block_9_expand_BN",
          "inbound_nodes": [[["block_9_expand", 0, 0, {}]]]
        },
        {
          "class_name": "ReLU",
          "config": {
            "name": "block_9_expand_relu",
            "trainable": true,
            "dtype": "float32",
            "max_value": 6.0,
            "negative_slope": 0.0,
            "threshold": 0.0
          },
          "name": "block_9_expand_relu",
          "inbound_nodes": [[["block_9_expand_BN", 0, 0, {}]]]
        },
        {
          "class_name": "DepthwiseConv2D",
          "config": {
            "name": "block_9_depthwise",
            "trainable": true,
            "dtype": "float32",
            "kernel_size": [3, 3],
            "strides": [1, 1],
            "padding": "same",
            "data_format": "channels_last",
            "dilation_rate": [1, 1],
            "groups": 1,
            "activation": "linear",
            "use_bias": false,
            "bias_initializer": { "class_name": "Zeros", "config": {} },
            "bias_regularizer": null,
            "activity_regularizer": null,
            "bias_constraint": null,
            "depth_multiplier": 1,
            "depthwise_initializer": {
              "class_name": "GlorotUniform",
              "config": { "seed": null }
            },
            "depthwise_regularizer": null,
            "depthwise_constraint": null
          },
          "name": "block_9_depthwise",
          "inbound_nodes": [[["block_9_expand_relu", 0, 0, {}]]]
        },
        {
          "class_name": "BatchNormalization",
          "config": {
            "name": "block_9_depthwise_BN",
            "trainable": true,
            "dtype": "float32",
            "axis": [3],
            "momentum": 0.999,
            "epsilon": 0.001,
            "center": true,
            "scale": true,
            "beta_initializer": { "class_name": "Zeros", "config": {} },
            "gamma_initializer": { "class_name": "Ones", "config": {} },
            "moving_mean_initializer": { "class_name": "Zeros", "config": {} },
            "moving_variance_initializer": {
              "class_name": "Ones",
              "config": {}
            },
            "beta_regularizer": null,
            "gamma_regularizer": null,
            "beta_constraint": null,
            "gamma_constraint": null
          },
          "name": "block_9_depthwise_BN",
          "inbound_nodes": [[["block_9_depthwise", 0, 0, {}]]]
        },
        {
          "class_name": "ReLU",
          "config": {
            "name": "block_9_depthwise_relu",
            "trainable": true,
            "dtype": "float32",
            "max_value": 6.0,
            "negative_slope": 0.0,
            "threshold": 0.0
          },
          "name": "block_9_depthwise_relu",
          "inbound_nodes": [[["block_9_depthwise_BN", 0, 0, {}]]]
        },
        {
          "class_name": "Conv2D",
          "config": {
            "name": "block_9_project",
            "trainable": true,
            "dtype": "float32",
            "filters": 64,
            "kernel_size": [1, 1],
            "strides": [1, 1],
            "padding": "same",
            "data_format": "channels_last",
            "dilation_rate": [1, 1],
            "groups": 1,
            "activation": "linear",
            "use_bias": false,
            "kernel_initializer": {
              "class_name": "GlorotUniform",
              "config": { "seed": null }
            },
            "bias_initializer": { "class_name": "Zeros", "config": {} },
            "kernel_regularizer": null,
            "bias_regularizer": null,
            "activity_regularizer": null,
            "kernel_constraint": null,
            "bias_constraint": null
          },
          "name": "block_9_project",
          "inbound_nodes": [[["block_9_depthwise_relu", 0, 0, {}]]]
        },
        {
          "class_name": "BatchNormalization",
          "config": {
            "name": "block_9_project_BN",
            "trainable": true,
            "dtype": "float32",
            "axis": [3],
            "momentum": 0.999,
            "epsilon": 0.001,
            "center": true,
            "scale": true,
            "beta_initializer": { "class_name": "Zeros", "config": {} },
            "gamma_initializer": { "class_name": "Ones", "config": {} },
            "moving_mean_initializer": { "class_name": "Zeros", "config": {} },
            "moving_variance_initializer": {
              "class_name": "Ones",
              "config": {}
            },
            "beta_regularizer": null,
            "gamma_regularizer": null,
            "beta_constraint": null,
            "gamma_constraint": null
          },
          "name": "block_9_project_BN",
          "inbound_nodes": [[["block_9_project", 0, 0, {}]]]
        },
        {
          "class_name": "Add",
          "config": {
            "name": "block_9_add",
            "trainable": true,
            "dtype": "float32"
          },
          "name": "block_9_add",
          "inbound_nodes": [
            [
              ["block_8_add", 0, 0, {}],
              ["block_9_project_BN", 0, 0, {}]
            ]
          ]
        },
        {
          "class_name": "Conv2D",
          "config": {
            "name": "block_10_expand",
            "trainable": true,
            "dtype": "float32",
            "filters": 384,
            "kernel_size": [1, 1],
            "strides": [1, 1],
            "padding": "same",
            "data_format": "channels_last",
            "dilation_rate": [1, 1],
            "groups": 1,
            "activation": "linear",
            "use_bias": false,
            "kernel_initializer": {
              "class_name": "GlorotUniform",
              "config": { "seed": null }
            },
            "bias_initializer": { "class_name": "Zeros", "config": {} },
            "kernel_regularizer": null,
            "bias_regularizer": null,
            "activity_regularizer": null,
            "kernel_constraint": null,
            "bias_constraint": null
          },
          "name": "block_10_expand",
          "inbound_nodes": [[["block_9_add", 0, 0, {}]]]
        },
        {
          "class_name": "BatchNormalization",
          "config": {
            "name": "block_10_expand_BN",
            "trainable": true,
            "dtype": "float32",
            "axis": [3],
            "momentum": 0.999,
            "epsilon": 0.001,
            "center": true,
            "scale": true,
            "beta_initializer": { "class_name": "Zeros", "config": {} },
            "gamma_initializer": { "class_name": "Ones", "config": {} },
            "moving_mean_initializer": { "class_name": "Zeros", "config": {} },
            "moving_variance_initializer": {
              "class_name": "Ones",
              "config": {}
            },
            "beta_regularizer": null,
            "gamma_regularizer": null,
            "beta_constraint": null,
            "gamma_constraint": null
          },
          "name": "block_10_expand_BN",
          "inbound_nodes": [[["block_10_expand", 0, 0, {}]]]
        },
        {
          "class_name": "ReLU",
          "config": {
            "name": "block_10_expand_relu",
            "trainable": true,
            "dtype": "float32",
            "max_value": 6.0,
            "negative_slope": 0.0,
            "threshold": 0.0
          },
          "name": "block_10_expand_relu",
          "inbound_nodes": [[["block_10_expand_BN", 0, 0, {}]]]
        },
        {
          "class_name": "DepthwiseConv2D",
          "config": {
            "name": "block_10_depthwise",
            "trainable": true,
            "dtype": "float32",
            "kernel_size": [3, 3],
            "strides": [1, 1],
            "padding": "same",
            "data_format": "channels_last",
            "dilation_rate": [1, 1],
            "groups": 1,
            "activation": "linear",
            "use_bias": false,
            "bias_initializer": { "class_name": "Zeros", "config": {} },
            "bias_regularizer": null,
            "activity_regularizer": null,
            "bias_constraint": null,
            "depth_multiplier": 1,
            "depthwise_initializer": {
              "class_name": "GlorotUniform",
              "config": { "seed": null }
            },
            "depthwise_regularizer": null,
            "depthwise_constraint": null
          },
          "name": "block_10_depthwise",
          "inbound_nodes": [[["block_10_expand_relu", 0, 0, {}]]]
        },
        {
          "class_name": "BatchNormalization",
          "config": {
            "name": "block_10_depthwise_BN",
            "trainable": true,
            "dtype": "float32",
            "axis": [3],
            "momentum": 0.999,
            "epsilon": 0.001,
            "center": true,
            "scale": true,
            "beta_initializer": { "class_name": "Zeros", "config": {} },
            "gamma_initializer": { "class_name": "Ones", "config": {} },
            "moving_mean_initializer": { "class_name": "Zeros", "config": {} },
            "moving_variance_initializer": {
              "class_name": "Ones",
              "config": {}
            },
            "beta_regularizer": null,
            "gamma_regularizer": null,
            "beta_constraint": null,
            "gamma_constraint": null
          },
          "name": "block_10_depthwise_BN",
          "inbound_nodes": [[["block_10_depthwise", 0, 0, {}]]]
        },
        {
          "class_name": "ReLU",
          "config": {
            "name": "block_10_depthwise_relu",
            "trainable": true,
            "dtype": "float32",
            "max_value": 6.0,
            "negative_slope": 0.0,
            "threshold": 0.0
          },
          "name": "block_10_depthwise_relu",
          "inbound_nodes": [[["block_10_depthwise_BN", 0, 0, {}]]]
        },
        {
          "class_name": "Conv2D",
          "config": {
            "name": "block_10_project",
            "trainable": true,
            "dtype": "float32",
            "filters": 96,
            "kernel_size": [1, 1],
            "strides": [1, 1],
            "padding": "same",
            "data_format": "channels_last",
            "dilation_rate": [1, 1],
            "groups": 1,
            "activation": "linear",
            "use_bias": false,
            "kernel_initializer": {
              "class_name": "GlorotUniform",
              "config": { "seed": null }
            },
            "bias_initializer": { "class_name": "Zeros", "config": {} },
            "kernel_regularizer": null,
            "bias_regularizer": null,
            "activity_regularizer": null,
            "kernel_constraint": null,
            "bias_constraint": null
          },
          "name": "block_10_project",
          "inbound_nodes": [[["block_10_depthwise_relu", 0, 0, {}]]]
        },
        {
          "class_name": "BatchNormalization",
          "config": {
            "name": "block_10_project_BN",
            "trainable": true,
            "dtype": "float32",
            "axis": [3],
            "momentum": 0.999,
            "epsilon": 0.001,
            "center": true,
            "scale": true,
            "beta_initializer": { "class_name": "Zeros", "config": {} },
            "gamma_initializer": { "class_name": "Ones", "config": {} },
            "moving_mean_initializer": { "class_name": "Zeros", "config": {} },
            "moving_variance_initializer": {
              "class_name": "Ones",
              "config": {}
            },
            "beta_regularizer": null,
            "gamma_regularizer": null,
            "beta_constraint": null,
            "gamma_constraint": null
          },
          "name": "block_10_project_BN",
          "inbound_nodes": [[["block_10_project", 0, 0, {}]]]
        },
        {
          "class_name": "Conv2D",
          "config": {
            "name": "block_11_expand",
            "trainable": true,
            "dtype": "float32",
            "filters": 576,
            "kernel_size": [1, 1],
            "strides": [1, 1],
            "padding": "same",
            "data_format": "channels_last",
            "dilation_rate": [1, 1],
            "groups": 1,
            "activation": "linear",
            "use_bias": false,
            "kernel_initializer": {
              "class_name": "GlorotUniform",
              "config": { "seed": null }
            },
            "bias_initializer": { "class_name": "Zeros", "config": {} },
            "kernel_regularizer": null,
            "bias_regularizer": null,
            "activity_regularizer": null,
            "kernel_constraint": null,
            "bias_constraint": null
          },
          "name": "block_11_expand",
          "inbound_nodes": [[["block_10_project_BN", 0, 0, {}]]]
        },
        {
          "class_name": "BatchNormalization",
          "config": {
            "name": "block_11_expand_BN",
            "trainable": true,
            "dtype": "float32",
            "axis": [3],
            "momentum": 0.999,
            "epsilon": 0.001,
            "center": true,
            "scale": true,
            "beta_initializer": { "class_name": "Zeros", "config": {} },
            "gamma_initializer": { "class_name": "Ones", "config": {} },
            "moving_mean_initializer": { "class_name": "Zeros", "config": {} },
            "moving_variance_initializer": {
              "class_name": "Ones",
              "config": {}
            },
            "beta_regularizer": null,
            "gamma_regularizer": null,
            "beta_constraint": null,
            "gamma_constraint": null
          },
          "name": "block_11_expand_BN",
          "inbound_nodes": [[["block_11_expand", 0, 0, {}]]]
        },
        {
          "class_name": "ReLU",
          "config": {
            "name": "block_11_expand_relu",
            "trainable": true,
            "dtype": "float32",
            "max_value": 6.0,
            "negative_slope": 0.0,
            "threshold": 0.0
          },
          "name": "block_11_expand_relu",
          "inbound_nodes": [[["block_11_expand_BN", 0, 0, {}]]]
        },
        {
          "class_name": "DepthwiseConv2D",
          "config": {
            "name": "block_11_depthwise",
            "trainable": true,
            "dtype": "float32",
            "kernel_size": [3, 3],
            "strides": [1, 1],
            "padding": "same",
            "data_format": "channels_last",
            "dilation_rate": [1, 1],
            "groups": 1,
            "activation": "linear",
            "use_bias": false,
            "bias_initializer": { "class_name": "Zeros", "config": {} },
            "bias_regularizer": null,
            "activity_regularizer": null,
            "bias_constraint": null,
            "depth_multiplier": 1,
            "depthwise_initializer": {
              "class_name": "GlorotUniform",
              "config": { "seed": null }
            },
            "depthwise_regularizer": null,
            "depthwise_constraint": null
          },
          "name": "block_11_depthwise",
          "inbound_nodes": [[["block_11_expand_relu", 0, 0, {}]]]
        },
        {
          "class_name": "BatchNormalization",
          "config": {
            "name": "block_11_depthwise_BN",
            "trainable": true,
            "dtype": "float32",
            "axis": [3],
            "momentum": 0.999,
            "epsilon": 0.001,
            "center": true,
            "scale": true,
            "beta_initializer": { "class_name": "Zeros", "config": {} },
            "gamma_initializer": { "class_name": "Ones", "config": {} },
            "moving_mean_initializer": { "class_name": "Zeros", "config": {} },
            "moving_variance_initializer": {
              "class_name": "Ones",
              "config": {}
            },
            "beta_regularizer": null,
            "gamma_regularizer": null,
            "beta_constraint": null,
            "gamma_constraint": null
          },
          "name": "block_11_depthwise_BN",
          "inbound_nodes": [[["block_11_depthwise", 0, 0, {}]]]
        },
        {
          "class_name": "ReLU",
          "config": {
            "name": "block_11_depthwise_relu",
            "trainable": true,
            "dtype": "float32",
            "max_value": 6.0,
            "negative_slope": 0.0,
            "threshold": 0.0
          },
          "name": "block_11_depthwise_relu",
          "inbound_nodes": [[["block_11_depthwise_BN", 0, 0, {}]]]
        },
        {
          "class_name": "Conv2D",
          "config": {
            "name": "block_11_project",
            "trainable": true,
            "dtype": "float32",
            "filters": 96,
            "kernel_size": [1, 1],
            "strides": [1, 1],
            "padding": "same",
            "data_format": "channels_last",
            "dilation_rate": [1, 1],
            "groups": 1,
            "activation": "linear",
            "use_bias": false,
            "kernel_initializer": {
              "class_name": "GlorotUniform",
              "config": { "seed": null }
            },
            "bias_initializer": { "class_name": "Zeros", "config": {} },
            "kernel_regularizer": null,
            "bias_regularizer": null,
            "activity_regularizer": null,
            "kernel_constraint": null,
            "bias_constraint": null
          },
          "name": "block_11_project",
          "inbound_nodes": [[["block_11_depthwise_relu", 0, 0, {}]]]
        },
        {
          "class_name": "BatchNormalization",
          "config": {
            "name": "block_11_project_BN",
            "trainable": true,
            "dtype": "float32",
            "axis": [3],
            "momentum": 0.999,
            "epsilon": 0.001,
            "center": true,
            "scale": true,
            "beta_initializer": { "class_name": "Zeros", "config": {} },
            "gamma_initializer": { "class_name": "Ones", "config": {} },
            "moving_mean_initializer": { "class_name": "Zeros", "config": {} },
            "moving_variance_initializer": {
              "class_name": "Ones",
              "config": {}
            },
            "beta_regularizer": null,
            "gamma_regularizer": null,
            "beta_constraint": null,
            "gamma_constraint": null
          },
          "name": "block_11_project_BN",
          "inbound_nodes": [[["block_11_project", 0, 0, {}]]]
        },
        {
          "class_name": "Add",
          "config": {
            "name": "block_11_add",
            "trainable": true,
            "dtype": "float32"
          },
          "name": "block_11_add",
          "inbound_nodes": [
            [
              ["block_10_project_BN", 0, 0, {}],
              ["block_11_project_BN", 0, 0, {}]
            ]
          ]
        },
        {
          "class_name": "Conv2D",
          "config": {
            "name": "block_12_expand",
            "trainable": true,
            "dtype": "float32",
            "filters": 576,
            "kernel_size": [1, 1],
            "strides": [1, 1],
            "padding": "same",
            "data_format": "channels_last",
            "dilation_rate": [1, 1],
            "groups": 1,
            "activation": "linear",
            "use_bias": false,
            "kernel_initializer": {
              "class_name": "GlorotUniform",
              "config": { "seed": null }
            },
            "bias_initializer": { "class_name": "Zeros", "config": {} },
            "kernel_regularizer": null,
            "bias_regularizer": null,
            "activity_regularizer": null,
            "kernel_constraint": null,
            "bias_constraint": null
          },
          "name": "block_12_expand",
          "inbound_nodes": [[["block_11_add", 0, 0, {}]]]
        },
        {
          "class_name": "BatchNormalization",
          "config": {
            "name": "block_12_expand_BN",
            "trainable": true,
            "dtype": "float32",
            "axis": [3],
            "momentum": 0.999,
            "epsilon": 0.001,
            "center": true,
            "scale": true,
            "beta_initializer": { "class_name": "Zeros", "config": {} },
            "gamma_initializer": { "class_name": "Ones", "config": {} },
            "moving_mean_initializer": { "class_name": "Zeros", "config": {} },
            "moving_variance_initializer": {
              "class_name": "Ones",
              "config": {}
            },
            "beta_regularizer": null,
            "gamma_regularizer": null,
            "beta_constraint": null,
            "gamma_constraint": null
          },
          "name": "block_12_expand_BN",
          "inbound_nodes": [[["block_12_expand", 0, 0, {}]]]
        },
        {
          "class_name": "ReLU",
          "config": {
            "name": "block_12_expand_relu",
            "trainable": true,
            "dtype": "float32",
            "max_value": 6.0,
            "negative_slope": 0.0,
            "threshold": 0.0
          },
          "name": "block_12_expand_relu",
          "inbound_nodes": [[["block_12_expand_BN", 0, 0, {}]]]
        },
        {
          "class_name": "DepthwiseConv2D",
          "config": {
            "name": "block_12_depthwise",
            "trainable": true,
            "dtype": "float32",
            "kernel_size": [3, 3],
            "strides": [1, 1],
            "padding": "same",
            "data_format": "channels_last",
            "dilation_rate": [1, 1],
            "groups": 1,
            "activation": "linear",
            "use_bias": false,
            "bias_initializer": { "class_name": "Zeros", "config": {} },
            "bias_regularizer": null,
            "activity_regularizer": null,
            "bias_constraint": null,
            "depth_multiplier": 1,
            "depthwise_initializer": {
              "class_name": "GlorotUniform",
              "config": { "seed": null }
            },
            "depthwise_regularizer": null,
            "depthwise_constraint": null
          },
          "name": "block_12_depthwise",
          "inbound_nodes": [[["block_12_expand_relu", 0, 0, {}]]]
        },
        {
          "class_name": "BatchNormalization",
          "config": {
            "name": "block_12_depthwise_BN",
            "trainable": true,
            "dtype": "float32",
            "axis": [3],
            "momentum": 0.999,
            "epsilon": 0.001,
            "center": true,
            "scale": true,
            "beta_initializer": { "class_name": "Zeros", "config": {} },
            "gamma_initializer": { "class_name": "Ones", "config": {} },
            "moving_mean_initializer": { "class_name": "Zeros", "config": {} },
            "moving_variance_initializer": {
              "class_name": "Ones",
              "config": {}
            },
            "beta_regularizer": null,
            "gamma_regularizer": null,
            "beta_constraint": null,
            "gamma_constraint": null
          },
          "name": "block_12_depthwise_BN",
          "inbound_nodes": [[["block_12_depthwise", 0, 0, {}]]]
        },
        {
          "class_name": "ReLU",
          "config": {
            "name": "block_12_depthwise_relu",
            "trainable": true,
            "dtype": "float32",
            "max_value": 6.0,
            "negative_slope": 0.0,
            "threshold": 0.0
          },
          "name": "block_12_depthwise_relu",
          "inbound_nodes": [[["block_12_depthwise_BN", 0, 0, {}]]]
        },
        {
          "class_name": "Conv2D",
          "config": {
            "name": "block_12_project",
            "trainable": true,
            "dtype": "float32",
            "filters": 96,
            "kernel_size": [1, 1],
            "strides": [1, 1],
            "padding": "same",
            "data_format": "channels_last",
            "dilation_rate": [1, 1],
            "groups": 1,
            "activation": "linear",
            "use_bias": false,
            "kernel_initializer": {
              "class_name": "GlorotUniform",
              "config": { "seed": null }
            },
            "bias_initializer": { "class_name": "Zeros", "config": {} },
            "kernel_regularizer": null,
            "bias_regularizer": null,
            "activity_regularizer": null,
            "kernel_constraint": null,
            "bias_constraint": null
          },
          "name": "block_12_project",
          "inbound_nodes": [[["block_12_depthwise_relu", 0, 0, {}]]]
        },
        {
          "class_name": "BatchNormalization",
          "config": {
            "name": "block_12_project_BN",
            "trainable": true,
            "dtype": "float32",
            "axis": [3],
            "momentum": 0.999,
            "epsilon": 0.001,
            "center": true,
            "scale": true,
            "beta_initializer": { "class_name": "Zeros", "config": {} },
            "gamma_initializer": { "class_name": "Ones", "config": {} },
            "moving_mean_initializer": { "class_name": "Zeros", "config": {} },
            "moving_variance_initializer": {
              "class_name": "Ones",
              "config": {}
            },
            "beta_regularizer": null,
            "gamma_regularizer": null,
            "beta_constraint": null,
            "gamma_constraint": null
          },
          "name": "block_12_project_BN",
          "inbound_nodes": [[["block_12_project", 0, 0, {}]]]
        },
        {
          "class_name": "Add",
          "config": {
            "name": "block_12_add",
            "trainable": true,
            "dtype": "float32"
          },
          "name": "block_12_add",
          "inbound_nodes": [
            [
              ["block_11_add", 0, 0, {}],
              ["block_12_project_BN", 0, 0, {}]
            ]
          ]
        },
        {
          "class_name": "Conv2D",
          "config": {
            "name": "block_13_expand",
            "trainable": true,
            "dtype": "float32",
            "filters": 576,
            "kernel_size": [1, 1],
            "strides": [1, 1],
            "padding": "same",
            "data_format": "channels_last",
            "dilation_rate": [1, 1],
            "groups": 1,
            "activation": "linear",
            "use_bias": false,
            "kernel_initializer": {
              "class_name": "GlorotUniform",
              "config": { "seed": null }
            },
            "bias_initializer": { "class_name": "Zeros", "config": {} },
            "kernel_regularizer": null,
            "bias_regularizer": null,
            "activity_regularizer": null,
            "kernel_constraint": null,
            "bias_constraint": null
          },
          "name": "block_13_expand",
          "inbound_nodes": [[["block_12_add", 0, 0, {}]]]
        },
        {
          "class_name": "BatchNormalization",
          "config": {
            "name": "block_13_expand_BN",
            "trainable": true,
            "dtype": "float32",
            "axis": [3],
            "momentum": 0.999,
            "epsilon": 0.001,
            "center": true,
            "scale": true,
            "beta_initializer": { "class_name": "Zeros", "config": {} },
            "gamma_initializer": { "class_name": "Ones", "config": {} },
            "moving_mean_initializer": { "class_name": "Zeros", "config": {} },
            "moving_variance_initializer": {
              "class_name": "Ones",
              "config": {}
            },
            "beta_regularizer": null,
            "gamma_regularizer": null,
            "beta_constraint": null,
            "gamma_constraint": null
          },
          "name": "block_13_expand_BN",
          "inbound_nodes": [[["block_13_expand", 0, 0, {}]]]
        },
        {
          "class_name": "ReLU",
          "config": {
            "name": "block_13_expand_relu",
            "trainable": true,
            "dtype": "float32",
            "max_value": 6.0,
            "negative_slope": 0.0,
            "threshold": 0.0
          },
          "name": "block_13_expand_relu",
          "inbound_nodes": [[["block_13_expand_BN", 0, 0, {}]]]
        },
        {
          "class_name": "ZeroPadding2D",
          "config": {
            "name": "block_13_pad",
            "trainable": true,
            "dtype": "float32",
            "padding": [
              [0, 1],
              [0, 1]
            ],
            "data_format": "channels_last"
          },
          "name": "block_13_pad",
          "inbound_nodes": [[["block_13_expand_relu", 0, 0, {}]]]
        },
        {
          "class_name": "DepthwiseConv2D",
          "config": {
            "name": "block_13_depthwise",
            "trainable": true,
            "dtype": "float32",
            "kernel_size": [3, 3],
            "strides": [2, 2],
            "padding": "valid",
            "data_format": "channels_last",
            "dilation_rate": [1, 1],
            "groups": 1,
            "activation": "linear",
            "use_bias": false,
            "bias_initializer": { "class_name": "Zeros", "config": {} },
            "bias_regularizer": null,
            "activity_regularizer": null,
            "bias_constraint": null,
            "depth_multiplier": 1,
            "depthwise_initializer": {
              "class_name": "GlorotUniform",
              "config": { "seed": null }
            },
            "depthwise_regularizer": null,
            "depthwise_constraint": null
          },
          "name": "block_13_depthwise",
          "inbound_nodes": [[["block_13_pad", 0, 0, {}]]]
        },
        {
          "class_name": "BatchNormalization",
          "config": {
            "name": "block_13_depthwise_BN",
            "trainable": true,
            "dtype": "float32",
            "axis": [3],
            "momentum": 0.999,
            "epsilon": 0.001,
            "center": true,
            "scale": true,
            "beta_initializer": { "class_name": "Zeros", "config": {} },
            "gamma_initializer": { "class_name": "Ones", "config": {} },
            "moving_mean_initializer": { "class_name": "Zeros", "config": {} },
            "moving_variance_initializer": {
              "class_name": "Ones",
              "config": {}
            },
            "beta_regularizer": null,
            "gamma_regularizer": null,
            "beta_constraint": null,
            "gamma_constraint": null
          },
          "name": "block_13_depthwise_BN",
          "inbound_nodes": [[["block_13_depthwise", 0, 0, {}]]]
        },
        {
          "class_name": "ReLU",
          "config": {
            "name": "block_13_depthwise_relu",
            "trainable": true,
            "dtype": "float32",
            "max_value": 6.0,
            "negative_slope": 0.0,
            "threshold": 0.0
          },
          "name": "block_13_depthwise_relu",
          "inbound_nodes": [[["block_13_depthwise_BN", 0, 0, {}]]]
        },
        {
          "class_name": "Conv2D",
          "config": {
            "name": "block_13_project",
            "trainable": true,
            "dtype": "float32",
            "filters": 160,
            "kernel_size": [1, 1],
            "strides": [1, 1],
            "padding": "same",
            "data_format": "channels_last",
            "dilation_rate": [1, 1],
            "groups": 1,
            "activation": "linear",
            "use_bias": false,
            "kernel_initializer": {
              "class_name": "GlorotUniform",
              "config": { "seed": null }
            },
            "bias_initializer": { "class_name": "Zeros", "config": {} },
            "kernel_regularizer": null,
            "bias_regularizer": null,
            "activity_regularizer": null,
            "kernel_constraint": null,
            "bias_constraint": null
          },
          "name": "block_13_project",
          "inbound_nodes": [[["block_13_depthwise_relu", 0, 0, {}]]]
        },
        {
          "class_name": "BatchNormalization",
          "config": {
            "name": "block_13_project_BN",
            "trainable": true,
            "dtype": "float32",
            "axis": [3],
            "momentum": 0.999,
            "epsilon": 0.001,
            "center": true,
            "scale": true,
            "beta_initializer": { "class_name": "Zeros", "config": {} },
            "gamma_initializer": { "class_name": "Ones", "config": {} },
            "moving_mean_initializer": { "class_name": "Zeros", "config": {} },
            "moving_variance_initializer": {
              "class_name": "Ones",
              "config": {}
            },
            "beta_regularizer": null,
            "gamma_regularizer": null,
            "beta_constraint": null,
            "gamma_constraint": null
          },
          "name": "block_13_project_BN",
          "inbound_nodes": [[["block_13_project", 0, 0, {}]]]
        },
        {
          "class_name": "Conv2D",
          "config": {
            "name": "block_14_expand",
            "trainable": true,
            "dtype": "float32",
            "filters": 960,
            "kernel_size": [1, 1],
            "strides": [1, 1],
            "padding": "same",
            "data_format": "channels_last",
            "dilation_rate": [1, 1],
            "groups": 1,
            "activation": "linear",
            "use_bias": false,
            "kernel_initializer": {
              "class_name": "GlorotUniform",
              "config": { "seed": null }
            },
            "bias_initializer": { "class_name": "Zeros", "config": {} },
            "kernel_regularizer": null,
            "bias_regularizer": null,
            "activity_regularizer": null,
            "kernel_constraint": null,
            "bias_constraint": null
          },
          "name": "block_14_expand",
          "inbound_nodes": [[["block_13_project_BN", 0, 0, {}]]]
        },
        {
          "class_name": "BatchNormalization",
          "config": {
            "name": "block_14_expand_BN",
            "trainable": true,
            "dtype": "float32",
            "axis": [3],
            "momentum": 0.999,
            "epsilon": 0.001,
            "center": true,
            "scale": true,
            "beta_initializer": { "class_name": "Zeros", "config": {} },
            "gamma_initializer": { "class_name": "Ones", "config": {} },
            "moving_mean_initializer": { "class_name": "Zeros", "config": {} },
            "moving_variance_initializer": {
              "class_name": "Ones",
              "config": {}
            },
            "beta_regularizer": null,
            "gamma_regularizer": null,
            "beta_constraint": null,
            "gamma_constraint": null
          },
          "name": "block_14_expand_BN",
          "inbound_nodes": [[["block_14_expand", 0, 0, {}]]]
        },
        {
          "class_name": "ReLU",
          "config": {
            "name": "block_14_expand_relu",
            "trainable": true,
            "dtype": "float32",
            "max_value": 6.0,
            "negative_slope": 0.0,
            "threshold": 0.0
          },
          "name": "block_14_expand_relu",
          "inbound_nodes": [[["block_14_expand_BN", 0, 0, {}]]]
        },
        {
          "class_name": "DepthwiseConv2D",
          "config": {
            "name": "block_14_depthwise",
            "trainable": true,
            "dtype": "float32",
            "kernel_size": [3, 3],
            "strides": [1, 1],
            "padding": "same",
            "data_format": "channels_last",
            "dilation_rate": [1, 1],
            "groups": 1,
            "activation": "linear",
            "use_bias": false,
            "bias_initializer": { "class_name": "Zeros", "config": {} },
            "bias_regularizer": null,
            "activity_regularizer": null,
            "bias_constraint": null,
            "depth_multiplier": 1,
            "depthwise_initializer": {
              "class_name": "GlorotUniform",
              "config": { "seed": null }
            },
            "depthwise_regularizer": null,
            "depthwise_constraint": null
          },
          "name": "block_14_depthwise",
          "inbound_nodes": [[["block_14_expand_relu", 0, 0, {}]]]
        },
        {
          "class_name": "BatchNormalization",
          "config": {
            "name": "block_14_depthwise_BN",
            "trainable": true,
            "dtype": "float32",
            "axis": [3],
            "momentum": 0.999,
            "epsilon": 0.001,
            "center": true,
            "scale": true,
            "beta_initializer": { "class_name": "Zeros", "config": {} },
            "gamma_initializer": { "class_name": "Ones", "config": {} },
            "moving_mean_initializer": { "class_name": "Zeros", "config": {} },
            "moving_variance_initializer": {
              "class_name": "Ones",
              "config": {}
            },
            "beta_regularizer": null,
            "gamma_regularizer": null,
            "beta_constraint": null,
            "gamma_constraint": null
          },
          "name": "block_14_depthwise_BN",
          "inbound_nodes": [[["block_14_depthwise", 0, 0, {}]]]
        },
        {
          "class_name": "ReLU",
          "config": {
            "name": "block_14_depthwise_relu",
            "trainable": true,
            "dtype": "float32",
            "max_value": 6.0,
            "negative_slope": 0.0,
            "threshold": 0.0
          },
          "name": "block_14_depthwise_relu",
          "inbound_nodes": [[["block_14_depthwise_BN", 0, 0, {}]]]
        },
        {
          "class_name": "Conv2D",
          "config": {
            "name": "block_14_project",
            "trainable": true,
            "dtype": "float32",
            "filters": 160,
            "kernel_size": [1, 1],
            "strides": [1, 1],
            "padding": "same",
            "data_format": "channels_last",
            "dilation_rate": [1, 1],
            "groups": 1,
            "activation": "linear",
            "use_bias": false,
            "kernel_initializer": {
              "class_name": "GlorotUniform",
              "config": { "seed": null }
            },
            "bias_initializer": { "class_name": "Zeros", "config": {} },
            "kernel_regularizer": null,
            "bias_regularizer": null,
            "activity_regularizer": null,
            "kernel_constraint": null,
            "bias_constraint": null
          },
          "name": "block_14_project",
          "inbound_nodes": [[["block_14_depthwise_relu", 0, 0, {}]]]
        },
        {
          "class_name": "BatchNormalization",
          "config": {
            "name": "block_14_project_BN",
            "trainable": true,
            "dtype": "float32",
            "axis": [3],
            "momentum": 0.999,
            "epsilon": 0.001,
            "center": true,
            "scale": true,
            "beta_initializer": { "class_name": "Zeros", "config": {} },
            "gamma_initializer": { "class_name": "Ones", "config": {} },
            "moving_mean_initializer": { "class_name": "Zeros", "config": {} },
            "moving_variance_initializer": {
              "class_name": "Ones",
              "config": {}
            },
            "beta_regularizer": null,
            "gamma_regularizer": null,
            "beta_constraint": null,
            "gamma_constraint": null
          },
          "name": "block_14_project_BN",
          "inbound_nodes": [[["block_14_project", 0, 0, {}]]]
        },
        {
          "class_name": "Add",
          "config": {
            "name": "block_14_add",
            "trainable": true,
            "dtype": "float32"
          },
          "name": "block_14_add",
          "inbound_nodes": [
            [
              ["block_13_project_BN", 0, 0, {}],
              ["block_14_project_BN", 0, 0, {}]
            ]
          ]
        },
        {
          "class_name": "Conv2D",
          "config": {
            "name": "block_15_expand",
            "trainable": true,
            "dtype": "float32",
            "filters": 960,
            "kernel_size": [1, 1],
            "strides": [1, 1],
            "padding": "same",
            "data_format": "channels_last",
            "dilation_rate": [1, 1],
            "groups": 1,
            "activation": "linear",
            "use_bias": false,
            "kernel_initializer": {
              "class_name": "GlorotUniform",
              "config": { "seed": null }
            },
            "bias_initializer": { "class_name": "Zeros", "config": {} },
            "kernel_regularizer": null,
            "bias_regularizer": null,
            "activity_regularizer": null,
            "kernel_constraint": null,
            "bias_constraint": null
          },
          "name": "block_15_expand",
          "inbound_nodes": [[["block_14_add", 0, 0, {}]]]
        },
        {
          "class_name": "BatchNormalization",
          "config": {
            "name": "block_15_expand_BN",
            "trainable": true,
            "dtype": "float32",
            "axis": [3],
            "momentum": 0.999,
            "epsilon": 0.001,
            "center": true,
            "scale": true,
            "beta_initializer": { "class_name": "Zeros", "config": {} },
            "gamma_initializer": { "class_name": "Ones", "config": {} },
            "moving_mean_initializer": { "class_name": "Zeros", "config": {} },
            "moving_variance_initializer": {
              "class_name": "Ones",
              "config": {}
            },
            "beta_regularizer": null,
            "gamma_regularizer": null,
            "beta_constraint": null,
            "gamma_constraint": null
          },
          "name": "block_15_expand_BN",
          "inbound_nodes": [[["block_15_expand", 0, 0, {}]]]
        },
        {
          "class_name": "ReLU",
          "config": {
            "name": "block_15_expand_relu",
            "trainable": true,
            "dtype": "float32",
            "max_value": 6.0,
            "negative_slope": 0.0,
            "threshold": 0.0
          },
          "name": "block_15_expand_relu",
          "inbound_nodes": [[["block_15_expand_BN", 0, 0, {}]]]
        },
        {
          "class_name": "DepthwiseConv2D",
          "config": {
            "name": "block_15_depthwise",
            "trainable": true,
            "dtype": "float32",
            "kernel_size": [3, 3],
            "strides": [1, 1],
            "padding": "same",
            "data_format": "channels_last",
            "dilation_rate": [1, 1],
            "groups": 1,
            "activation": "linear",
            "use_bias": false,
            "bias_initializer": { "class_name": "Zeros", "config": {} },
            "bias_regularizer": null,
            "activity_regularizer": null,
            "bias_constraint": null,
            "depth_multiplier": 1,
            "depthwise_initializer": {
              "class_name": "GlorotUniform",
              "config": { "seed": null }
            },
            "depthwise_regularizer": null,
            "depthwise_constraint": null
          },
          "name": "block_15_depthwise",
          "inbound_nodes": [[["block_15_expand_relu", 0, 0, {}]]]
        },
        {
          "class_name": "BatchNormalization",
          "config": {
            "name": "block_15_depthwise_BN",
            "trainable": true,
            "dtype": "float32",
            "axis": [3],
            "momentum": 0.999,
            "epsilon": 0.001,
            "center": true,
            "scale": true,
            "beta_initializer": { "class_name": "Zeros", "config": {} },
            "gamma_initializer": { "class_name": "Ones", "config": {} },
            "moving_mean_initializer": { "class_name": "Zeros", "config": {} },
            "moving_variance_initializer": {
              "class_name": "Ones",
              "config": {}
            },
            "beta_regularizer": null,
            "gamma_regularizer": null,
            "beta_constraint": null,
            "gamma_constraint": null
          },
          "name": "block_15_depthwise_BN",
          "inbound_nodes": [[["block_15_depthwise", 0, 0, {}]]]
        },
        {
          "class_name": "ReLU",
          "config": {
            "name": "block_15_depthwise_relu",
            "trainable": true,
            "dtype": "float32",
            "max_value": 6.0,
            "negative_slope": 0.0,
            "threshold": 0.0
          },
          "name": "block_15_depthwise_relu",
          "inbound_nodes": [[["block_15_depthwise_BN", 0, 0, {}]]]
        },
        {
          "class_name": "Conv2D",
          "config": {
            "name": "block_15_project",
            "trainable": true,
            "dtype": "float32",
            "filters": 160,
            "kernel_size": [1, 1],
            "strides": [1, 1],
            "padding": "same",
            "data_format": "channels_last",
            "dilation_rate": [1, 1],
            "groups": 1,
            "activation": "linear",
            "use_bias": false,
            "kernel_initializer": {
              "class_name": "GlorotUniform",
              "config": { "seed": null }
            },
            "bias_initializer": { "class_name": "Zeros", "config": {} },
            "kernel_regularizer": null,
            "bias_regularizer": null,
            "activity_regularizer": null,
            "kernel_constraint": null,
            "bias_constraint": null
          },
          "name": "block_15_project",
          "inbound_nodes": [[["block_15_depthwise_relu", 0, 0, {}]]]
        },
        {
          "class_name": "BatchNormalization",
          "config": {
            "name": "block_15_project_BN",
            "trainable": true,
            "dtype": "float32",
            "axis": [3],
            "momentum": 0.999,
            "epsilon": 0.001,
            "center": true,
            "scale": true,
            "beta_initializer": { "class_name": "Zeros", "config": {} },
            "gamma_initializer": { "class_name": "Ones", "config": {} },
            "moving_mean_initializer": { "class_name": "Zeros", "config": {} },
            "moving_variance_initializer": {
              "class_name": "Ones",
              "config": {}
            },
            "beta_regularizer": null,
            "gamma_regularizer": null,
            "beta_constraint": null,
            "gamma_constraint": null
          },
          "name": "block_15_project_BN",
          "inbound_nodes": [[["block_15_project", 0, 0, {}]]]
        },
        {
          "class_name": "Add",
          "config": {
            "name": "block_15_add",
            "trainable": true,
            "dtype": "float32"
          },
          "name": "block_15_add",
          "inbound_nodes": [
            [
              ["block_14_add", 0, 0, {}],
              ["block_15_project_BN", 0, 0, {}]
            ]
          ]
        },
        {
          "class_name": "Conv2D",
          "config": {
            "name": "block_16_expand",
            "trainable": true,
            "dtype": "float32",
            "filters": 960,
            "kernel_size": [1, 1],
            "strides": [1, 1],
            "padding": "same",
            "data_format": "channels_last",
            "dilation_rate": [1, 1],
            "groups": 1,
            "activation": "linear",
            "use_bias": false,
            "kernel_initializer": {
              "class_name": "GlorotUniform",
              "config": { "seed": null }
            },
            "bias_initializer": { "class_name": "Zeros", "config": {} },
            "kernel_regularizer": null,
            "bias_regularizer": null,
            "activity_regularizer": null,
            "kernel_constraint": null,
            "bias_constraint": null
          },
          "name": "block_16_expand",
          "inbound_nodes": [[["block_15_add", 0, 0, {}]]]
        },
        {
          "class_name": "BatchNormalization",
          "config": {
            "name": "block_16_expand_BN",
            "trainable": true,
            "dtype": "float32",
            "axis": [3],
            "momentum": 0.999,
            "epsilon": 0.001,
            "center": true,
            "scale": true,
            "beta_initializer": { "class_name": "Zeros", "config": {} },
            "gamma_initializer": { "class_name": "Ones", "config": {} },
            "moving_mean_initializer": { "class_name": "Zeros", "config": {} },
            "moving_variance_initializer": {
              "class_name": "Ones",
              "config": {}
            },
            "beta_regularizer": null,
            "gamma_regularizer": null,
            "beta_constraint": null,
            "gamma_constraint": null
          },
          "name": "block_16_expand_BN",
          "inbound_nodes": [[["block_16_expand", 0, 0, {}]]]
        },
        {
          "class_name": "ReLU",
          "config": {
            "name": "block_16_expand_relu",
            "trainable": true,
            "dtype": "float32",
            "max_value": 6.0,
            "negative_slope": 0.0,
            "threshold": 0.0
          },
          "name": "block_16_expand_relu",
          "inbound_nodes": [[["block_16_expand_BN", 0, 0, {}]]]
        },
        {
          "class_name": "DepthwiseConv2D",
          "config": {
            "name": "block_16_depthwise",
            "trainable": true,
            "dtype": "float32",
            "kernel_size": [3, 3],
            "strides": [1, 1],
            "padding": "same",
            "data_format": "channels_last",
            "dilation_rate": [1, 1],
            "groups": 1,
            "activation": "linear",
            "use_bias": false,
            "bias_initializer": { "class_name": "Zeros", "config": {} },
            "bias_regularizer": null,
            "activity_regularizer": null,
            "bias_constraint": null,
            "depth_multiplier": 1,
            "depthwise_initializer": {
              "class_name": "GlorotUniform",
              "config": { "seed": null }
            },
            "depthwise_regularizer": null,
            "depthwise_constraint": null
          },
          "name": "block_16_depthwise",
          "inbound_nodes": [[["block_16_expand_relu", 0, 0, {}]]]
        },
        {
          "class_name": "BatchNormalization",
          "config": {
            "name": "block_16_depthwise_BN",
            "trainable": true,
            "dtype": "float32",
            "axis": [3],
            "momentum": 0.999,
            "epsilon": 0.001,
            "center": true,
            "scale": true,
            "beta_initializer": { "class_name": "Zeros", "config": {} },
            "gamma_initializer": { "class_name": "Ones", "config": {} },
            "moving_mean_initializer": { "class_name": "Zeros", "config": {} },
            "moving_variance_initializer": {
              "class_name": "Ones",
              "config": {}
            },
            "beta_regularizer": null,
            "gamma_regularizer": null,
            "beta_constraint": null,
            "gamma_constraint": null
          },
          "name": "block_16_depthwise_BN",
          "inbound_nodes": [[["block_16_depthwise", 0, 0, {}]]]
        },
        {
          "class_name": "ReLU",
          "config": {
            "name": "block_16_depthwise_relu",
            "trainable": true,
            "dtype": "float32",
            "max_value": 6.0,
            "negative_slope": 0.0,
            "threshold": 0.0
          },
          "name": "block_16_depthwise_relu",
          "inbound_nodes": [[["block_16_depthwise_BN", 0, 0, {}]]]
        },
        {
          "class_name": "Conv2D",
          "config": {
            "name": "block_16_project",
            "trainable": true,
            "dtype": "float32",
            "filters": 320,
            "kernel_size": [1, 1],
            "strides": [1, 1],
            "padding": "same",
            "data_format": "channels_last",
            "dilation_rate": [1, 1],
            "groups": 1,
            "activation": "linear",
            "use_bias": false,
            "kernel_initializer": {
              "class_name": "GlorotUniform",
              "config": { "seed": null }
            },
            "bias_initializer": { "class_name": "Zeros", "config": {} },
            "kernel_regularizer": null,
            "bias_regularizer": null,
            "activity_regularizer": null,
            "kernel_constraint": null,
            "bias_constraint": null
          },
          "name": "block_16_project",
          "inbound_nodes": [[["block_16_depthwise_relu", 0, 0, {}]]]
        },
        {
          "class_name": "BatchNormalization",
          "config": {
            "name": "block_16_project_BN",
            "trainable": true,
            "dtype": "float32",
            "axis": [3],
            "momentum": 0.999,
            "epsilon": 0.001,
            "center": true,
            "scale": true,
            "beta_initializer": { "class_name": "Zeros", "config": {} },
            "gamma_initializer": { "class_name": "Ones", "config": {} },
            "moving_mean_initializer": { "class_name": "Zeros", "config": {} },
            "moving_variance_initializer": {
              "class_name": "Ones",
              "config": {}
            },
            "beta_regularizer": null,
            "gamma_regularizer": null,
            "beta_constraint": null,
            "gamma_constraint": null
          },
          "name": "block_16_project_BN",
          "inbound_nodes": [[["block_16_project", 0, 0, {}]]]
        },
        {
          "class_name": "Conv2D",
          "config": {
            "name": "Conv_1",
            "trainable": true,
            "dtype": "float32",
            "filters": 1280,
            "kernel_size": [1, 1],
            "strides": [1, 1],
            "padding": "valid",
            "data_format": "channels_last",
            "dilation_rate": [1, 1],
            "groups": 1,
            "activation": "linear",
            "use_bias": false,
            "kernel_initializer": {
              "class_name": "GlorotUniform",
              "config": { "seed": null }
            },
            "bias_initializer": { "class_name": "Zeros", "config": {} },
            "kernel_regularizer": null,
            "bias_regularizer": null,
            "activity_regularizer": null,
            "kernel_constraint": null,
            "bias_constraint": null
          },
          "name": "Conv_1",
          "inbound_nodes": [[["block_16_project_BN", 0, 0, {}]]]
        },
        {
          "class_name": "BatchNormalization",
          "config": {
            "name": "Conv_1_bn",
            "trainable": true,
            "dtype": "float32",
            "axis": [3],
            "momentum": 0.999,
            "epsilon": 0.001,
            "center": true,
            "scale": true,
            "beta_initializer": { "class_name": "Zeros", "config": {} },
            "gamma_initializer": { "class_name": "Ones", "config": {} },
            "moving_mean_initializer": { "class_name": "Zeros", "config": {} },
            "moving_variance_initializer": {
              "class_name": "Ones",
              "config": {}
            },
            "beta_regularizer": null,
            "gamma_regularizer": null,
            "beta_constraint": null,
            "gamma_constraint": null
          },
          "name": "Conv_1_bn",
          "inbound_nodes": [[["Conv_1", 0, 0, {}]]]
        },
        {
          "class_name": "ReLU",
          "config": {
            "name": "out_relu",
            "trainable": true,
            "dtype": "float32",
            "max_value": 6.0,
            "negative_slope": 0.0,
            "threshold": 0.0
          },
          "name": "out_relu",
          "inbound_nodes": [[["Conv_1_bn", 0, 0, {}]]]
        },
        {
          "class_name": "GlobalAveragePooling2D",
          "config": {
            "name": "global_average_pooling2d_2",
            "trainable": true,
            "dtype": "float32",
            "data_format": "channels_last",
            "keepdims": false
          },
          "name": "global_average_pooling2d_2",
          "inbound_nodes": [[["out_relu", 0, 0, {}]]]
        },
        {
          "class_name": "Dropout",
          "config": {
            "name": "dropout_2",
            "trainable": true,
            "dtype": "float32",
            "rate": 0.5,
            "noise_shape": null,
            "seed": null
          },
          "name": "dropout_2",
          "inbound_nodes": [[["global_average_pooling2d_2", 0, 0, {}]]]
        },
        {
          "class_name": "Dense",
          "config": {
            "name": "dense_2",
            "trainable": true,
            "dtype": "float32",
            "units": 3,
            "activation": "sigmoid",
            "use_bias": true,
            "kernel_initializer": {
              "class_name": "GlorotUniform",
              "config": { "seed": null }
            },
            "bias_initializer": { "class_name": "Zeros", "config": {} },
            "kernel_regularizer": null,
            "bias_regularizer": null,
            "activity_regularizer": null,
            "kernel_constraint": null,
            "bias_constraint": null
          },
          "name": "dense_2",
          "inbound_nodes": [[["dropout_2", 0, 0, {}]]]
        }
      ],
      "input_layers": [["input_6", 0, 0]],
      "output_layers": [["dense_2", 0, 0]]
    },
    "keras_version": "2.6.0",
    "backend": "tensorflow"
  },
  "weightsManifest": [
    {
      "paths": ["group1-shard1of1.bin"],
      "weights": [
        {
          "name": "Conv1/kernel",
          "shape": [3, 3, 1, 32],
          "dtype": "float32",
          "quantization": {
            "dtype": "uint8",
            "min": -1.4424997862647562,
            "scale": 0.011182168885773303,
            "original_dtype": "float32"
          }
        },
        {
          "name": "bn_Conv1/gamma",
          "shape": [32],
          "dtype": "float32",
          "quantization": {
            "dtype": "uint8",
            "min": 0.15859852731227875,
            "scale": 0.01621734540836484,
            "original_dtype": "float32"
          }
        },
        {
          "name": "bn_Conv1/beta",
          "shape": [32],
          "dtype": "float32",
          "quantization": {
            "dtype": "uint8",
            "min": -6.165572581571691,
            "scale": 0.042816476260914525,
            "original_dtype": "float32"
          }
        },
        {
          "name": "bn_Conv1/moving_mean",
          "shape": [32],
          "dtype": "float32",
          "quantization": {
            "dtype": "uint8",
            "min": -0.9914808927797804,
            "scale": 0.009096154979631012,
            "original_dtype": "float32"
          }
        },
        {
          "name": "bn_Conv1/moving_variance",
          "shape": [32],
          "dtype": "float32",
          "quantization": {
            "dtype": "uint8",
            "min": -0.0,
            "scale": 0.005080612033021216,
            "original_dtype": "float32"
          }
        },
        {
          "name": "expanded_conv_depthwise/depthwise_kernel",
          "shape": [3, 3, 32, 1],
          "dtype": "float32",
          "quantization": {
            "dtype": "uint8",
            "min": -25.74281223521513,
            "scale": 0.19355497921214385,
            "original_dtype": "float32"
          }
        },
        {
          "name": "expanded_conv_depthwise_BN/gamma",
          "shape": [32],
          "dtype": "float32",
          "quantization": {
            "dtype": "uint8",
            "min": -0.10125052741929597,
            "scale": 0.007232180529949712,
            "original_dtype": "float32"
          }
        },
        {
          "name": "expanded_conv_depthwise_BN/beta",
          "shape": [32],
          "dtype": "float32",
          "quantization": {
            "dtype": "uint8",
            "min": -1.3676288053101182,
            "scale": 0.018734641168631758,
            "original_dtype": "float32"
          }
        },
        {
          "name": "expanded_conv_depthwise_BN/moving_mean",
          "shape": [32],
          "dtype": "float32",
          "quantization": {
            "dtype": "uint8",
            "min": -13.691424526887781,
            "scale": 0.09993740530575022,
            "original_dtype": "float32"
          }
        },
        {
          "name": "expanded_conv_depthwise_BN/moving_variance",
          "shape": [32],
          "dtype": "float32",
          "quantization": {
            "dtype": "uint8",
            "min": -0.0,
            "scale": 2.1155929266237745,
            "original_dtype": "float32"
          }
        },
        {
          "name": "expanded_conv_project/kernel",
          "shape": [1, 1, 32, 16],
          "dtype": "float32",
          "quantization": {
            "dtype": "uint8",
            "min": -1.2887202328326657,
            "scale": 0.008826850909812778,
            "original_dtype": "float32"
          }
        },
        {
          "name": "expanded_conv_project_BN/gamma",
          "shape": [16],
          "dtype": "float32",
          "quantization": {
            "dtype": "uint8",
            "min": 2.63748836517334,
            "scale": 0.009837438545975031,
            "original_dtype": "float32"
          }
        },
        {
          "name": "expanded_conv_project_BN/beta",
          "shape": [16],
          "dtype": "float32",
          "quantization": {
            "dtype": "uint8",
            "min": -0.03836559565628277,
            "scale": 0.0004461115773986368,
            "original_dtype": "float32"
          }
        },
        {
          "name": "expanded_conv_project_BN/moving_mean",
          "shape": [16],
          "dtype": "float32",
          "quantization": {
            "dtype": "uint8",
            "min": -4.353592395782471,
            "scale": 0.02902394930521647,
            "original_dtype": "float32"
          }
        },
        {
          "name": "expanded_conv_project_BN/moving_variance",
          "shape": [16],
          "dtype": "float32",
          "quantization": {
            "dtype": "uint8",
            "min": 0.16751959919929504,
            "scale": 0.004646025802574906,
            "original_dtype": "float32"
          }
        },
        {
          "name": "block_1_expand/kernel",
          "shape": [1, 1, 16, 96],
          "dtype": "float32",
          "quantization": {
            "dtype": "uint8",
            "min": -1.1236037373542787,
            "scale": 0.006978905200958252,
            "original_dtype": "float32"
          }
        },
        {
          "name": "block_1_expand_BN/gamma",
          "shape": [96],
          "dtype": "float32",
          "quantization": {
            "dtype": "uint8",
            "min": 0.20428165793418884,
            "scale": 0.03753070515744826,
            "original_dtype": "float32"
          }
        },
        {
          "name": "block_1_expand_BN/beta",
          "shape": [96],
          "dtype": "float32",
          "quantization": {
            "dtype": "uint8",
            "min": -2.242099687164905,
            "scale": 0.028026246089561314,
            "original_dtype": "float32"
          }
        },
        {
          "name": "block_1_expand_BN/moving_mean",
          "shape": [96],
          "dtype": "float32",
          "quantization": {
            "dtype": "uint8",
            "min": -0.05289169278214959,
            "scale": 0.0003698719774975496,
            "original_dtype": "float32"
          }
        },
        {
          "name": "block_1_expand_BN/moving_variance",
          "shape": [96],
          "dtype": "float32",
          "quantization": {
            "dtype": "uint8",
            "min": 1.3437954187393188,
            "scale": 0.060274821169236124,
            "original_dtype": "float32"
          }
        },
        {
          "name": "block_1_depthwise/depthwise_kernel",
          "shape": [3, 3, 96, 1],
          "dtype": "float32",
          "quantization": {
            "dtype": "uint8",
            "min": -3.0734253406524656,
            "scale": 0.025400209426879882,
            "original_dtype": "float32"
          }
        },
        {
          "name": "block_1_depthwise_BN/gamma",
          "shape": [96],
          "dtype": "float32",
          "quantization": {
            "dtype": "uint8",
            "min": 0.45794081687927246,
            "scale": 0.011602259617225797,
            "original_dtype": "float32"
          }
        },
        {
          "name": "block_1_depthwise_BN/beta",
          "shape": [96],
          "dtype": "float32",
          "quantization": {
            "dtype": "uint8",
            "min": -4.131989374347762,
            "scale": 0.034148672515270755,
            "original_dtype": "float32"
          }
        },
        {
          "name": "block_1_depthwise_BN/moving_mean",
          "shape": [96],
          "dtype": "float32",
          "quantization": {
            "dtype": "uint8",
            "min": -29.20970989302093,
            "scale": 0.2679789898442287,
            "original_dtype": "float32"
          }
        },
        {
          "name": "block_1_depthwise_BN/moving_variance",
          "shape": [96],
          "dtype": "float32",
          "quantization": {
            "dtype": "uint8",
            "min": 0.3507050573825836,
            "scale": 0.7702682311628379,
            "original_dtype": "float32"
          }
        },
        {
          "name": "block_1_project/kernel",
          "shape": [1, 1, 96, 24],
          "dtype": "float32",
          "quantization": {
            "dtype": "uint8",
            "min": -1.2259529969271492,
            "scale": 0.007430018163194843,
            "original_dtype": "float32"
          }
        },
        {
          "name": "block_1_project_BN/gamma",
          "shape": [24],
          "dtype": "float32",
          "quantization": {
            "dtype": "uint8",
            "min": 1.9865052700042725,
            "scale": 0.01306298854304295,
            "original_dtype": "float32"
          }
        },
        {
          "name": "block_1_project_BN/beta",
          "shape": [24],
          "dtype": "float32",
          "quantization": {
            "dtype": "uint8",
            "min": -0.011006147502099767,
            "scale": 8.948087400081111e-5,
            "original_dtype": "float32"
          }
        },
        {
          "name": "block_1_project_BN/moving_mean",
          "shape": [24],
          "dtype": "float32",
          "quantization": {
            "dtype": "uint8",
            "min": -5.140642652324602,
            "scale": 0.03212901657702876,
            "original_dtype": "float32"
          }
        },
        {
          "name": "block_1_project_BN/moving_variance",
          "shape": [24],
          "dtype": "float32",
          "quantization": {
            "dtype": "uint8",
            "min": 0.1716003268957138,
            "scale": 0.011266838393959344,
            "original_dtype": "float32"
          }
        },
        {
          "name": "block_2_expand/kernel",
          "shape": [1, 1, 24, 144],
          "dtype": "float32",
          "quantization": {
            "dtype": "uint8",
            "min": -0.46251948674519855,
            "scale": 0.003886718376010072,
            "original_dtype": "float32"
          }
        },
        {
          "name": "block_2_expand_BN/gamma",
          "shape": [144],
          "dtype": "float32",
          "quantization": {
            "dtype": "uint8",
            "min": 0.18106690049171448,
            "scale": 0.01641464642449921,
            "original_dtype": "float32"
          }
        },
        {
          "name": "block_2_expand_BN/beta",
          "shape": [144],
          "dtype": "float32",
          "quantization": {
            "dtype": "uint8",
            "min": -2.584791940801284,
            "scale": 0.0287199104533476,
            "original_dtype": "float32"
          }
        },
        {
          "name": "block_2_expand_BN/moving_mean",
          "shape": [144],
          "dtype": "float32",
          "quantization": {
            "dtype": "uint8",
            "min": -0.008734117667464649,
            "scale": 6.61675580868534e-5,
            "original_dtype": "float32"
          }
        },
        {
          "name": "block_2_expand_BN/moving_variance",
          "shape": [144],
          "dtype": "float32",
          "quantization": {
            "dtype": "uint8",
            "min": 1.5712777886143822e-34,
            "scale": 0.0867806827320772,
            "original_dtype": "float32"
          }
        },
        {
          "name": "block_2_depthwise/depthwise_kernel",
          "shape": [3, 3, 144, 1],
          "dtype": "float32",
          "quantization": {
            "dtype": "uint8",
            "min": -7.223964360181022,
            "scale": 0.05873141756244734,
            "original_dtype": "float32"
          }
        },
        {
          "name": "block_2_depthwise_BN/gamma",
          "shape": [144],
          "dtype": "float32",
          "quantization": {
            "dtype": "uint8",
            "min": 0.41051238775253296,
            "scale": 0.008299501503215116,
            "original_dtype": "float32"
          }
        },
        {
          "name": "block_2_depthwise_BN/beta",
          "shape": [144],
          "dtype": "float32",
          "quantization": {
            "dtype": "uint8",
            "min": -3.290423224954044,
            "scale": 0.034275241926604624,
            "original_dtype": "float32"
          }
        },
        {
          "name": "block_2_depthwise_BN/moving_mean",
          "shape": [144],
          "dtype": "float32",
          "quantization": {
            "dtype": "uint8",
            "min": -11.417266191220751,
            "scale": 0.06009087469063553,
            "original_dtype": "float32"
          }
        },
        {
          "name": "block_2_depthwise_BN/moving_variance",
          "shape": [144],
          "dtype": "float32",
          "quantization": {
            "dtype": "uint8",
            "min": -0.0,
            "scale": 0.14032127529967064,
            "original_dtype": "float32"
          }
        },
        {
          "name": "block_2_project/kernel",
          "shape": [1, 1, 144, 24],
          "dtype": "float32",
          "quantization": {
            "dtype": "uint8",
            "min": -0.46525087730557313,
            "scale": 0.0041540256902283315,
            "original_dtype": "float32"
          }
        },
        {
          "name": "block_2_project_BN/gamma",
          "shape": [24],
          "dtype": "float32",
          "quantization": {
            "dtype": "uint8",
            "min": 1.4416651725769043,
            "scale": 0.024718250947840074,
            "original_dtype": "float32"
          }
        },
        {
          "name": "block_2_project_BN/beta",
          "shape": [24],
          "dtype": "float32",
          "quantization": {
            "dtype": "uint8",
            "min": -0.007242720468225432,
            "scale": 6.644697677271038e-5,
            "original_dtype": "float32"
          }
        },
        {
          "name": "block_2_project_BN/moving_mean",
          "shape": [24],
          "dtype": "float32",
          "quantization": {
            "dtype": "uint8",
            "min": -4.330890706006218,
            "scale": 0.03701615988039503,
            "original_dtype": "float32"
          }
        },
        {
          "name": "block_2_project_BN/moving_variance",
          "shape": [24],
          "dtype": "float32",
          "quantization": {
            "dtype": "uint8",
            "min": 0.34205543994903564,
            "scale": 0.007011221436893238,
            "original_dtype": "float32"
          }
        },
        {
          "name": "block_3_expand/kernel",
          "shape": [1, 1, 24, 144],
          "dtype": "float32",
          "quantization": {
            "dtype": "uint8",
            "min": -0.9538378294776467,
            "scale": 0.007065465403538124,
            "original_dtype": "float32"
          }
        },
        {
          "name": "block_3_expand_BN/gamma",
          "shape": [144],
          "dtype": "float32",
          "quantization": {
            "dtype": "uint8",
            "min": 0.28412869572639465,
            "scale": 0.014019893080580468,
            "original_dtype": "float32"
          }
        },
        {
          "name": "block_3_expand_BN/beta",
          "shape": [144],
          "dtype": "float32",
          "quantization": {
            "dtype": "uint8",
            "min": -2.353970148049149,
            "scale": 0.025042235617544137,
            "original_dtype": "float32"
          }
        },
        {
          "name": "block_3_expand_BN/moving_mean",
          "shape": [144],
          "dtype": "float32",
          "quantization": {
            "dtype": "uint8",
            "min": -0.011081916488268796,
            "scale": 9.15860866799074e-5,
            "original_dtype": "float32"
          }
        },
        {
          "name": "block_3_expand_BN/moving_variance",
          "shape": [144],
          "dtype": "float32",
          "quantization": {
            "dtype": "uint8",
            "min": 1.6329233646392822,
            "scale": 0.17019704089445226,
            "original_dtype": "float32"
          }
        },
        {
          "name": "block_3_depthwise/depthwise_kernel",
          "shape": [3, 3, 144, 1],
          "dtype": "float32",
          "quantization": {
            "dtype": "uint8",
            "min": -2.2861462471531886,
            "scale": 0.018001151552387313,
            "original_dtype": "float32"
          }
        },
        {
          "name": "block_3_depthwise_BN/gamma",
          "shape": [144],
          "dtype": "float32",
          "quantization": {
            "dtype": "uint8",
            "min": 0.3322143852710724,
            "scale": 0.01166582189354242,
            "original_dtype": "float32"
          }
        },
        {
          "name": "block_3_depthwise_BN/beta",
          "shape": [144],
          "dtype": "float32",
          "quantization": {
            "dtype": "uint8",
            "min": -2.825470235300999,
            "scale": 0.031049123464846142,
            "original_dtype": "float32"
          }
        },
        {
          "name": "block_3_depthwise_BN/moving_mean",
          "shape": [144],
          "dtype": "float32",
          "quantization": {
            "dtype": "uint8",
            "min": -28.758216708314183,
            "scale": 0.18553688198912377,
            "original_dtype": "float32"
          }
        },
        {
          "name": "block_3_depthwise_BN/moving_variance",
          "shape": [144],
          "dtype": "float32",
          "quantization": {
            "dtype": "uint8",
            "min": 0.10963220149278641,
            "scale": 0.39793381898426544,
            "original_dtype": "float32"
          }
        },
        {
          "name": "block_3_project/kernel",
          "shape": [1, 1, 144, 32],
          "dtype": "float32",
          "quantization": {
            "dtype": "uint8",
            "min": -0.6887771382051355,
            "scale": 0.006377566094491996,
            "original_dtype": "float32"
          }
        },
        {
          "name": "block_3_project_BN/gamma",
          "shape": [32],
          "dtype": "float32",
          "quantization": {
            "dtype": "uint8",
            "min": 2.481966733932495,
            "scale": 0.01665066831252154,
            "original_dtype": "float32"
          }
        },
        {
          "name": "block_3_project_BN/beta",
          "shape": [32],
          "dtype": "float32",
          "quantization": {
            "dtype": "uint8",
            "min": -0.005601728965035256,
            "scale": 6.43876892532788e-5,
            "original_dtype": "float32"
          }
        },
        {
          "name": "block_3_project_BN/moving_mean",
          "shape": [32],
          "dtype": "float32",
          "quantization": {
            "dtype": "uint8",
            "min": -3.292980940201703,
            "scale": 0.037850355634502335,
            "original_dtype": "float32"
          }
        },
        {
          "name": "block_3_project_BN/moving_variance",
          "shape": [32],
          "dtype": "float32",
          "quantization": {
            "dtype": "uint8",
            "min": 0.4920761287212372,
            "scale": 0.032368169228235884,
            "original_dtype": "float32"
          }
        },
        {
          "name": "block_4_expand/kernel",
          "shape": [1, 1, 32, 192],
          "dtype": "float32",
          "quantization": {
            "dtype": "uint8",
            "min": -0.40238621690694026,
            "scale": 0.0028538029567868103,
            "original_dtype": "float32"
          }
        },
        {
          "name": "block_4_expand_BN/gamma",
          "shape": [192],
          "dtype": "float32",
          "quantization": {
            "dtype": "uint8",
            "min": 0.13056495785713196,
            "scale": 0.007674896833943385,
            "original_dtype": "float32"
          }
        },
        {
          "name": "block_4_expand_BN/beta",
          "shape": [192],
          "dtype": "float32",
          "quantization": {
            "dtype": "uint8",
            "min": -2.6084678051518457,
            "scale": 0.02248679142372281,
            "original_dtype": "float32"
          }
        },
        {
          "name": "block_4_expand_BN/moving_mean",
          "shape": [192],
          "dtype": "float32",
          "quantization": {
            "dtype": "uint8",
            "min": -0.002868466473677579,
            "scale": 2.561130780069267e-5,
            "original_dtype": "float32"
          }
        },
        {
          "name": "block_4_expand_BN/moving_variance",
          "shape": [192],
          "dtype": "float32",
          "quantization": {
            "dtype": "uint8",
            "min": 0.8155642151832581,
            "scale": 0.09997876087824503,
            "original_dtype": "float32"
          }
        },
        {
          "name": "block_4_depthwise/depthwise_kernel",
          "shape": [3, 3, 192, 1],
          "dtype": "float32",
          "quantization": {
            "dtype": "uint8",
            "min": -4.979396670472388,
            "scale": 0.03715967664531633,
            "original_dtype": "float32"
          }
        },
        {
          "name": "block_4_depthwise_BN/gamma",
          "shape": [192],
          "dtype": "float32",
          "quantization": {
            "dtype": "uint8",
            "min": 0.4041142165660858,
            "scale": 0.009344985555200016,
            "original_dtype": "float32"
          }
        },
        {
          "name": "block_4_depthwise_BN/beta",
          "shape": [192],
          "dtype": "float32",
          "quantization": {
            "dtype": "uint8",
            "min": -2.907595392301971,
            "scale": 0.024029713985966702,
            "original_dtype": "float32"
          }
        },
        {
          "name": "block_4_depthwise_BN/moving_mean",
          "shape": [192],
          "dtype": "float32",
          "quantization": {
            "dtype": "uint8",
            "min": -5.3808752695719395,
            "scale": 0.045217439240100334,
            "original_dtype": "float32"
          }
        },
        {
          "name": "block_4_depthwise_BN/moving_variance",
          "shape": [192],
          "dtype": "float32",
          "quantization": {
            "dtype": "uint8",
            "min": 0.00048051620251499116,
            "scale": 0.06809946749160778,
            "original_dtype": "float32"
          }
        },
        {
          "name": "block_4_project/kernel",
          "shape": [1, 1, 192, 32],
          "dtype": "float32",
          "quantization": {
            "dtype": "uint8",
            "min": -0.501719010811226,
            "scale": 0.0034364315808988084,
            "original_dtype": "float32"
          }
        },
        {
          "name": "block_4_project_BN/gamma",
          "shape": [32],
          "dtype": "float32",
          "quantization": {
            "dtype": "uint8",
            "min": 0.9814932346343994,
            "scale": 0.01988268553041944,
            "original_dtype": "float32"
          }
        },
        {
          "name": "block_4_project_BN/beta",
          "shape": [32],
          "dtype": "float32",
          "quantization": {
            "dtype": "uint8",
            "min": -0.005416626846600397,
            "scale": 5.25886101611689e-5,
            "original_dtype": "float32"
          }
        },
        {
          "name": "block_4_project_BN/moving_mean",
          "shape": [32],
          "dtype": "float32",
          "quantization": {
            "dtype": "uint8",
            "min": -2.815908058016908,
            "scale": 0.020113628985835057,
            "original_dtype": "float32"
          }
        },
        {
          "name": "block_4_project_BN/moving_variance",
          "shape": [32],
          "dtype": "float32",
          "quantization": {
            "dtype": "uint8",
            "min": 0.10690885782241821,
            "scale": 0.004834255283954097,
            "original_dtype": "float32"
          }
        },
        {
          "name": "block_5_expand/kernel",
          "shape": [1, 1, 32, 192],
          "dtype": "float32",
          "quantization": {
            "dtype": "uint8",
            "min": -0.3556577294480567,
            "scale": 0.002939320078083113,
            "original_dtype": "float32"
          }
        },
        {
          "name": "block_5_expand_BN/gamma",
          "shape": [192],
          "dtype": "float32",
          "quantization": {
            "dtype": "uint8",
            "min": 0.1425205022096634,
            "scale": 0.007183614606950797,
            "original_dtype": "float32"
          }
        },
        {
          "name": "block_5_expand_BN/beta",
          "shape": [192],
          "dtype": "float32",
          "quantization": {
            "dtype": "uint8",
            "min": -1.6088845028596765,
            "scale": 0.019153386938805674,
            "original_dtype": "float32"
          }
        },
        {
          "name": "block_5_expand_BN/moving_mean",
          "shape": [192],
          "dtype": "float32",
          "quantization": {
            "dtype": "uint8",
            "min": -0.005681094781075622,
            "scale": 5.6248463178966556e-5,
            "original_dtype": "float32"
          }
        },
        {
          "name": "block_5_expand_BN/moving_variance",
          "shape": [192],
          "dtype": "float32",
          "quantization": {
            "dtype": "uint8",
            "min": 1.08580482006073,
            "scale": 0.08757728548610912,
            "original_dtype": "float32"
          }
        },
        {
          "name": "block_5_depthwise/depthwise_kernel",
          "shape": [3, 3, 192, 1],
          "dtype": "float32",
          "quantization": {
            "dtype": "uint8",
            "min": -4.527502304899927,
            "scale": 0.032571959028057026,
            "original_dtype": "float32"
          }
        },
        {
          "name": "block_5_depthwise_BN/gamma",
          "shape": [192],
          "dtype": "float32",
          "quantization": {
            "dtype": "uint8",
            "min": 0.43243756890296936,
            "scale": 0.008470197168051028,
            "original_dtype": "float32"
          }
        },
        {
          "name": "block_5_depthwise_BN/beta",
          "shape": [192],
          "dtype": "float32",
          "quantization": {
            "dtype": "uint8",
            "min": -2.880052914338953,
            "scale": 0.02341506434421913,
            "original_dtype": "float32"
          }
        },
        {
…
            "dtype": "uint8",
            "min": 0.12624338269233704,
            "scale": 0.0057716714400871125,
            "original_dtype": "float32"
          }
        },
        {
          "name": "block_7_expand_BN/beta",
          "shape": [384],
          "dtype": "float32",
          "quantization": {
            "dtype": "uint8",
            "min": -1.5321213390312942,
            "scale": 0.01939394100039613,
            "original_dtype": "float32"
          }
        },
        {
          "name": "block_7_expand_BN/moving_mean",
          "shape": [384],
          "dtype": "float32",
          "quantization": {
            "dtype": "uint8",
            "min": -0.0030256377505686353,
            "scale": 2.586015171426184e-5,
            "original_dtype": "float32"
          }
        },
        {
          "name": "block_7_expand_BN/moving_variance",
          "shape": [384],
          "dtype": "float32",
          "quantization": {
            "dtype": "uint8",
            "min": 0.6159089207649231,
            "scale": 0.02740238110224406,
            "original_dtype": "float32"
          }
        },
        {
          "name": "block_7_depthwise/depthwise_kernel",
          "shape": [3, 3, 384, 1],
          "dtype": "float32",
          "quantization": {
            "dtype": "uint8",
            "min": -3.2843406452852135,
            "scale": 0.0229674170998966,
            "original_dtype": "float32"
          }
        },
        {
          "name": "block_7_depthwise_BN/gamma",
          "shape": [384],
          "dtype": "float32",
          "quantization": {
            "dtype": "uint8",
            "min": 0.2516518235206604,
            "scale": 0.0095161847039765,
            "original_dtype": "float32"
          }
        },
        {
          "name": "block_7_depthwise_BN/beta",
          "shape": [384],
          "dtype": "float32",
          "quantization": {
            "dtype": "uint8",
            "min": -3.615880726365482,
            "scale": 0.02114550132377475,
            "original_dtype": "float32"
          }
        },
        {
          "name": "block_7_depthwise_BN/moving_mean",
          "shape": [384],
          "dtype": "float32",
          "quantization": {
            "dtype": "uint8",
            "min": -21.675758258969175,
            "scale": 0.09548792184567918,
            "original_dtype": "float32"
          }
        },
        {
          "name": "block_7_depthwise_BN/moving_variance",
          "shape": [384],
          "dtype": "float32",
          "quantization": {
            "dtype": "uint8",
            "min": 0.00023651611991226673,
            "scale": 0.04323849395629676,
            "original_dtype": "float32"
          }
        },
        {
          "name": "block_7_project/kernel",
          "shape": [1, 1, 384, 64],
          "dtype": "float32",
          "quantization": {
            "dtype": "uint8",
            "min": -0.5230255010081273,
            "scale": 0.004023273084677902,
            "original_dtype": "float32"
          }
        },
        {
          "name": "block_7_project_BN/gamma",
          "shape": [64],
          "dtype": "float32",
          "quantization": {
            "dtype": "uint8",
            "min": 0.6192899942398071,
            "scale": 0.020005436972075817,
            "original_dtype": "float32"
          }
        },
        {
          "name": "block_7_project_BN/beta",
          "shape": [64],
          "dtype": "float32",
          "quantization": {
            "dtype": "uint8",
            "min": -0.00535919075356979,
            "scale": 4.287352602855832e-5,
            "original_dtype": "float32"
          }
        },
        {
          "name": "block_7_project_BN/moving_mean",
          "shape": [64],
          "dtype": "float32",
          "quantization": {
            "dtype": "uint8",
            "min": -0.9499834614641526,
            "scale": 0.015079102562923058,
            "original_dtype": "float32"
          }
        },
        {
          "name": "block_7_project_BN/moving_variance",
          "shape": [64],
          "dtype": "float32",
          "quantization": {
            "dtype": "uint8",
            "min": 0.11347515136003494,
            "scale": 0.006671713584778355,
            "original_dtype": "float32"
          }
        },
        {
          "name": "block_8_expand/kernel",
          "shape": [1, 1, 64, 384],
          "dtype": "float32",
          "quantization": {
            "dtype": "uint8",
            "min": -0.49388334236893,
            "scale": 0.0034537296669155944,
            "original_dtype": "float32"
          }
        },
        {
          "name": "block_8_expand_BN/gamma",
          "shape": [384],
          "dtype": "float32",
          "quantization": {
            "dtype": "uint8",
            "min": 0.08852291107177734,
            "scale": 0.005672136942545573,
            "original_dtype": "float32"
          }
        },
        {
          "name": "block_8_expand_BN/beta",
          "shape": [384],
          "dtype": "float32",
          "quantization": {
            "dtype": "uint8",
            "min": -1.4637366042417639,
            "scale": 0.014492441626156078,
            "original_dtype": "float32"
          }
        },
        {
          "name": "block_8_expand_BN/moving_mean",
          "shape": [384],
          "dtype": "float32",
          "quantization": {
            "dtype": "uint8",
            "min": -0.005547418942054112,
            "scale": 4.078984516216259e-5,
            "original_dtype": "float32"
          }
        },
        {
          "name": "block_8_expand_BN/moving_variance",
          "shape": [384],
          "dtype": "float32",
          "quantization": {
            "dtype": "uint8",
            "min": 0.6917217373847961,
            "scale": 0.04023942456525915,
            "original_dtype": "float32"
          }
        },
        {
          "name": "block_8_depthwise/depthwise_kernel",
          "shape": [3, 3, 384, 1],
          "dtype": "float32",
          "quantization": {
            "dtype": "uint8",
            "min": -3.4209166470695944,
            "scale": 0.02693635155172909,
            "original_dtype": "float32"
          }
        },
        {
          "name": "block_8_depthwise_BN/gamma",
          "shape": [384],
          "dtype": "float32",
          "quantization": {
            "dtype": "uint8",
            "min": 0.3276234567165375,
            "scale": 0.016069400661131914,
            "original_dtype": "float32"
          }
        },
        {
          "name": "block_8_depthwise_BN/beta",
          "shape": [384],
          "dtype": "float32",
          "quantization": {
            "dtype": "uint8",
            "min": -6.192134655223173,
            "scale": 0.03276261722340303,
            "original_dtype": "float32"
          }
        },
        {
          "name": "block_8_depthwise_BN/moving_mean",
          "shape": [384],
          "dtype": "float32",
          "quantization": {
            "dtype": "uint8",
            "min": -9.64246575972613,
            "scale": 0.04658196019191368,
            "original_dtype": "float32"
          }
        },
        {
          "name": "block_8_depthwise_BN/moving_variance",
          "shape": [384],
          "dtype": "float32",
          "quantization": {
            "dtype": "uint8",
            "min": 0.004859046544879675,
            "scale": 0.04311049188505493,
            "original_dtype": "float32"
          }
        },
        {
          "name": "block_8_project/kernel",
          "shape": [1, 1, 384, 64],
          "dtype": "float32",
          "quantization": {
            "dtype": "uint8",
            "min": -0.28786919444215064,
            "scale": 0.002266686570410635,
            "original_dtype": "float32"
          }
        },
        {
          "name": "block_8_project_BN/gamma",
          "shape": [64],
          "dtype": "float32",
          "quantization": {
            "dtype": "uint8",
            "min": 0.6656318306922913,
            "scale": 0.012614015270681941,
            "original_dtype": "float32"
          }
        },
        {
          "name": "block_8_project_BN/beta",
          "shape": [64],
          "dtype": "float32",
          "quantization": {
            "dtype": "uint8",
            "min": -0.00459263513193411,
            "scale": 3.733849700759439e-5,
            "original_dtype": "float32"
          }
        },
        {
          "name": "block_8_project_BN/moving_mean",
          "shape": [64],
          "dtype": "float32",
          "quantization": {
            "dtype": "uint8",
            "min": -1.1394758677950094,
            "scale": 0.008698289067137476,
            "original_dtype": "float32"
          }
        },
        {
          "name": "block_8_project_BN/moving_variance",
          "shape": [64],
          "dtype": "float32",
          "quantization": {
            "dtype": "uint8",
            "min": 0.08576612919569016,
            "scale": 0.0021754940643030052,
            "original_dtype": "float32"
          }
        },
        {
          "name": "block_9_expand/kernel",
          "shape": [1, 1, 64, 384],
          "dtype": "float32",
          "quantization": {
            "dtype": "uint8",
            "min": -0.3141996194334591,
            "scale": 0.0029923773279377057,
            "original_dtype": "float32"
          }
        },
        {
          "name": "block_9_expand_BN/gamma",
          "shape": [384],
          "dtype": "float32",
          "quantization": {
            "dtype": "uint8",
            "min": 0.22359608113765717,
            "scale": 0.007064519267456204,
            "original_dtype": "float32"
          }
        },
        {
          "name": "block_9_expand_BN/beta",
          "shape": [384],
          "dtype": "float32",
          "quantization": {
            "dtype": "uint8",
            "min": -1.3810624029122147,
            "scale": 0.011905710369932885,
            "original_dtype": "float32"
          }
        },
        {
          "name": "block_9_expand_BN/moving_mean",
          "shape": [384],
          "dtype": "float32",
          "quantization": {
            "dtype": "uint8",
            "min": -0.008104064644259565,
            "scale": 6.43179733671394e-5,
            "original_dtype": "float32"
          }
        },
        {
          "name": "block_9_expand_BN/moving_variance",
          "shape": [384],
          "dtype": "float32",
          "quantization": {
            "dtype": "uint8",
            "min": 0.7736378312110901,
            "scale": 0.03614023970622642,
            "original_dtype": "float32"
          }
        },
        {
          "name": "block_9_depthwise/depthwise_kernel",
          "shape": [3, 3, 384, 1],
          "dtype": "float32",
          "quantization": {
            "dtype": "uint8",
            "min": -2.83196717524061,
            "scale": 0.01980396626042385,
            "original_dtype": "float32"
          }
        },
        {
          "name": "block_9_depthwise_BN/gamma",
          "shape": [384],
          "dtype": "float32",
          "quantization": {
            "dtype": "uint8",
            "min": 0.37332168221473694,
            "scale": 0.007733693192986881,
            "original_dtype": "float32"
          }
        },
        {
          "name": "block_9_depthwise_BN/beta",
          "shape": [384],
          "dtype": "float32",
          "quantization": {
            "dtype": "uint8",
            "min": -4.168536386302873,
            "scale": 0.02511166497772815,
            "original_dtype": "float32"
          }
        },
        {
          "name": "block_9_depthwise_BN/moving_mean",
          "shape": [384],
          "dtype": "float32",
          "quantization": {
            "dtype": "uint8",
            "min": -4.824665576336431,
            "scale": 0.029064250459858016,
            "original_dtype": "float32"
          }
        },
        {
          "name": "block_9_depthwise_BN/moving_variance",
          "shape": [384],
          "dtype": "float32",
          "quantization": {
            "dtype": "uint8",
            "min": 0.09144484251737595,
            "scale": 0.018969814946838453,
            "original_dtype": "float32"
          }
        },
        {
          "name": "block_9_project/kernel",
          "shape": [1, 1, 384, 64],
          "dtype": "float32",
          "quantization": {
            "dtype": "uint8",
            "min": -0.5037070405249502,
            "scale": 0.0033138621087167777,
            "original_dtype": "float32"
          }
        },
        {
          "name": "block_9_project_BN/gamma",
          "shape": [64],
          "dtype": "float32",
          "quantization": {
            "dtype": "uint8",
            "min": 0.6983065009117126,
            "scale": 0.012086651605718276,
            "original_dtype": "float32"
          }
        },
        {
          "name": "block_9_project_BN/beta",
          "shape": [64],
          "dtype": "float32",
          "quantization": {
            "dtype": "uint8",
            "min": -0.0049785315990448,
            "scale": 3.660684999297647e-5,
            "original_dtype": "float32"
          }
        },
        {
          "name": "block_9_project_BN/moving_mean",
          "shape": [64],
          "dtype": "float32",
          "quantization": {
            "dtype": "uint8",
            "min": -1.7548752223744113,
            "scale": 0.010832563101076612,
            "original_dtype": "float32"
          }
        },
        {
          "name": "block_9_project_BN/moving_variance",
          "shape": [64],
          "dtype": "float32",
          "quantization": {
            "dtype": "uint8",
            "min": 0.07378228008747101,
            "scale": 0.001223785678545634,
            "original_dtype": "float32"
          }
        },
        {
          "name": "block_10_expand/kernel",
          "shape": [1, 1, 64, 384],
          "dtype": "float32",
          "quantization": {
            "dtype": "uint8",
            "min": -0.4746117720416948,
            "scale": 0.0037968941763335583,
            "original_dtype": "float32"
          }
        },
        {
          "name": "block_10_expand_BN/gamma",
          "shape": [384],
          "dtype": "float32",
          "quantization": {
            "dtype": "uint8",
            "min": 0.3170945644378662,
            "scale": 0.006759180742151597,
            "original_dtype": "float32"
          }
        },
        {
          "name": "block_10_expand_BN/beta",
          "shape": [384],
          "dtype": "float32",
          "quantization": {
            "dtype": "uint8",
            "min": -1.941128929456075,
            "scale": 0.01631200781055525,
            "original_dtype": "float32"
          }
        },
        {
          "name": "block_10_expand_BN/moving_mean",
          "shape": [384],
          "dtype": "float32",
          "quantization": {
            "dtype": "uint8",
            "min": -0.0156773641705513,
            "scale": 0.00011527473654817133,
            "original_dtype": "float32"
          }
        },
        {
          "name": "block_10_expand_BN/moving_variance",
          "shape": [384],
          "dtype": "float32",
          "quantization": {
            "dtype": "uint8",
            "min": 2.1358189582824707,
            "scale": 0.10361891166836608,
            "original_dtype": "float32"
          }
        },
        {
          "name": "block_10_depthwise/depthwise_kernel",
          "shape": [3, 3, 384, 1],
          "dtype": "float32",
          "quantization": {
            "dtype": "uint8",
            "min": -4.087906108183019,
            "scale": 0.03406588423485849,
            "original_dtype": "float32"
          }
        },
        {
          "name": "block_10_depthwise_BN/gamma",
          "shape": [384],
          "dtype": "float32",
          "quantization": {
            "dtype": "uint8",
            "min": 0.3985883891582489,
            "scale": 0.007280954777025709,
            "original_dtype": "float32"
          }
        },
        {
          "name": "block_10_depthwise_BN/beta",
          "shape": [384],
          "dtype": "float32",
          "quantization": {
            "dtype": "uint8",
            "min": -1.6702152813182156,
            "scale": 0.023197434462752995,
            "original_dtype": "float32"
          }
        },
        {
          "name": "block_10_depthwise_BN/moving_mean",
          "shape": [384],
          "dtype": "float32",
          "quantization": {
            "dtype": "uint8",
            "min": -10.822140375773113,
            "scale": 0.0636596492692536,
            "original_dtype": "float32"
          }
        },
        {
          "name": "block_10_depthwise_BN/moving_variance",
          "shape": [384],
          "dtype": "float32",
          "quantization": {
            "dtype": "uint8",
            "min": 0.17564626038074493,
            "scale": 0.10487892878990547,
            "original_dtype": "float32"
          }
        },
        {
          "name": "block_10_project/kernel",
          "shape": [1, 1, 384, 96],
          "dtype": "float32",
          "quantization": {
            "dtype": "uint8",
            "min": -0.3650846808564429,
            "scale": 0.0033189516441494813,
            "original_dtype": "float32"
          }
        },
        {
          "name": "block_10_project_BN/gamma",
          "shape": [96],
          "dtype": "float32",
          "quantization": {
            "dtype": "uint8",
            "min": 1.8190499544143677,
            "scale": 0.010028995719610476,
            "original_dtype": "float32"
          }
        },
        {
          "name": "block_10_project_BN/beta",
          "shape": [96],
          "dtype": "float32",
          "quantization": {
            "dtype": "uint8",
            "min": -0.009869196265935899,
            "scale": 7.476663837830226e-5,
            "original_dtype": "float32"
          }
        },
        {
          "name": "block_10_project_BN/moving_mean",
          "shape": [96],
          "dtype": "float32",
          "quantization": {
            "dtype": "uint8",
            "min": -4.511802687364466,
            "scale": 0.030692535288193646,
            "original_dtype": "float32"
          }
        },
        {
          "name": "block_10_project_BN/moving_variance",
          "shape": [96],
          "dtype": "float32",
          "quantization": {
            "dtype": "uint8",
            "min": 0.4233720600605011,
            "scale": 0.018984488763061223,
            "original_dtype": "float32"
          }
        },
        {
          "name": "block_11_expand/kernel",
          "shape": [1, 1, 96, 576],
          "dtype": "float32",
          "quantization": {
            "dtype": "uint8",
            "min": -0.2976661500977535,
            "scale": 0.002343827953525618,
            "original_dtype": "float32"
          }
        },
        {
          "name": "block_11_expand_BN/gamma",
          "shape": [576],
          "dtype": "float32",
          "quantization": {
            "dtype": "uint8",
            "min": 0.003317946335300803,
            "scale": 0.011166305658316203,
            "original_dtype": "float32"
          }
        },
        {
          "name": "block_11_expand_BN/beta",
          "shape": [576],
          "dtype": "float32",
          "quantization": {
            "dtype": "uint8",
            "min": -1.6685921870025933,
            "scale": 0.018748226820253858,
            "original_dtype": "float32"
          }
        },
        {
          "name": "block_11_expand_BN/moving_mean",
          "shape": [576],
          "dtype": "float32",
          "quantization": {
            "dtype": "uint8",
            "min": -0.004024566315552768,
            "scale": 3.35380526296064e-5,
            "original_dtype": "float32"
          }
        },
        {
          "name": "block_11_expand_BN/moving_variance",
          "shape": [576],
          "dtype": "float32",
          "quantization": {
            "dtype": "uint8",
            "min": 0.008936441503465176,
            "scale": 0.03403698215078489,
            "original_dtype": "float32"
          }
        },
        {
          "name": "block_11_depthwise/depthwise_kernel",
          "shape": [3, 3, 576, 1],
          "dtype": "float32",
          "quantization": {
            "dtype": "uint8",
            "min": -3.1465066087012197,
            "scale": 0.024203896990009383,
            "original_dtype": "float32"
          }
        },
        {
          "name": "block_11_depthwise_BN/gamma",
          "shape": [576],
          "dtype": "float32",
          "quantization": {
            "dtype": "uint8",
            "min": 0.2523907423019409,
            "scale": 0.01202542968824798,
            "original_dtype": "float32"
          }
        },
        {
          "name": "block_11_depthwise_BN/beta",
          "shape": [576],
          "dtype": "float32",
          "quantization": {
            "dtype": "uint8",
            "min": -3.5113639597799264,
            "scale": 0.024216303170896045,
            "original_dtype": "float32"
          }
        },
        {
          "name": "block_11_depthwise_BN/moving_mean",
          "shape": [576],
          "dtype": "float32",
          "quantization": {
            "dtype": "uint8",
            "min": -7.163387474359251,
            "scale": 0.041647601595111924,
            "original_dtype": "float32"
          }
        },
        {
          "name": "block_11_depthwise_BN/moving_variance",
          "shape": [576],
          "dtype": "float32",
          "quantization": {
            "dtype": "uint8",
            "min": 5.0979546358576044e-5,
            "scale": 0.04981129045700072,
            "original_dtype": "float32"
          }
        },
        {
          "name": "block_11_project/kernel",
          "shape": [1, 1, 576, 96],
          "dtype": "float32",
          "quantization": {
            "dtype": "uint8",
            "min": -0.2415044605731964,
            "scale": 0.001979544758796692,
            "original_dtype": "float32"
          }
        },
        {
          "name": "block_11_project_BN/gamma",
          "shape": [96],
          "dtype": "float32",
          "quantization": {
            "dtype": "uint8",
            "min": 0.6443876624107361,
            "scale": 0.008157479763031005,
            "original_dtype": "float32"
          }
        },
        {
          "name": "block_11_project_BN/beta",
          "shape": [96],
          "dtype": "float32",
          "quantization": {
            "dtype": "uint8",
            "min": -0.009024472070821361,
            "scale": 6.310819629945008e-5,
            "original_dtype": "float32"
          }
        },
        {
          "name": "block_11_project_BN/moving_mean",
          "shape": [96],
          "dtype": "float32",
          "quantization": {
            "dtype": "uint8",
            "min": -2.079895412220674,
            "scale": 0.016773350098553824,
            "original_dtype": "float32"
          }
        },
        {
          "name": "block_11_project_BN/moving_variance",
          "shape": [96],
          "dtype": "float32",
          "quantization": {
            "dtype": "uint8",
            "min": 0.09414270520210266,
            "scale": 0.0008743618048873603,
            "original_dtype": "float32"
          }
        },
        {
          "name": "block_12_expand/kernel",
          "shape": [1, 1, 96, 576],
          "dtype": "float32",
          "quantization": {
            "dtype": "uint8",
            "min": -0.24915966426624972,
            "scale": 0.002059170779059915,
            "original_dtype": "float32"
          }
        },
        {
          "name": "block_12_expand_BN/gamma",
          "shape": [576],
          "dtype": "float32",
          "quantization": {
            "dtype": "uint8",
            "min": 0.22768312692642212,
            "scale": 0.010022438974941478,
            "original_dtype": "float32"
          }
        },
        {
          "name": "block_12_expand_BN/beta",
          "shape": [576],
          "dtype": "float32",
          "quantization": {
            "dtype": "uint8",
            "min": -1.909193553176581,
            "scale": 0.016458565113591214,
            "original_dtype": "float32"
          }
        },
        {
          "name": "block_12_expand_BN/moving_mean",
          "shape": [576],
          "dtype": "float32",
          "quantization": {
            "dtype": "uint8",
            "min": -0.008677063655911707,
            "scale": 6.674664350701314e-5,
            "original_dtype": "float32"
          }
        },
        {
          "name": "block_12_expand_BN/moving_variance",
          "shape": [576],
          "dtype": "float32",
          "quantization": {
            "dtype": "uint8",
            "min": 0.817685067653656,
            "scale": 0.0346853445557987,
            "original_dtype": "float32"
          }
        },
        {
          "name": "block_12_depthwise/depthwise_kernel",
          "shape": [3, 3, 576, 1],
          "dtype": "float32",
          "quantization": {
            "dtype": "uint8",
            "min": -3.061665644365198,
            "scale": 0.024891590604595108,
            "original_dtype": "float32"
          }
        },
        {
          "name": "block_12_depthwise_BN/gamma",
          "shape": [576],
          "dtype": "float32",
          "quantization": {
            "dtype": "uint8",
            "min": 0.21067675948143005,
            "scale": 0.018314546346664427,
            "original_dtype": "float32"
          }
        },
        {
          "name": "block_12_depthwise_BN/beta",
          "shape": [576],
          "dtype": "float32",
          "quantization": {
            "dtype": "uint8",
            "min": -5.972017841713101,
            "scale": 0.03641474293727501,
            "original_dtype": "float32"
          }
        },
        {
          "name": "block_12_depthwise_BN/moving_mean",
          "shape": [576],
          "dtype": "float32",
          "quantization": {
            "dtype": "uint8",
            "min": -10.980316204183241,
            "scale": 0.05630931386760637,
            "original_dtype": "float32"
          }
        },
        {
          "name": "block_12_depthwise_BN/moving_variance",
          "shape": [576],
          "dtype": "float32",
          "quantization": {
            "dtype": "uint8",
            "min": 5.6148106523323804e-5,
            "scale": 0.029653461772107346,
            "original_dtype": "float32"
          }
        },
        {
          "name": "block_12_project/kernel",
          "shape": [1, 1, 576, 96],
          "dtype": "float32",
          "quantization": {
            "dtype": "uint8",
            "min": -0.4624463504435969,
            "scale": 0.00325666443974364,
            "original_dtype": "float32"
          }
        },
        {
          "name": "block_12_project_BN/gamma",
          "shape": [96],
          "dtype": "float32",
          "quantization": {
            "dtype": "uint8",
            "min": 0.7653072476387024,
            "scale": 0.013363859466477937,
            "original_dtype": "float32"
          }
        },
        {
          "name": "block_12_project_BN/beta",
          "shape": [96],
          "dtype": "float32",
          "quantization": {
            "dtype": "uint8",
            "min": -0.007920068946173963,
            "scale": 6.0458541573847044e-5,
            "original_dtype": "float32"
          }
        },
        {
          "name": "block_12_project_BN/moving_mean",
          "shape": [96],
          "dtype": "float32",
          "quantization": {
            "dtype": "uint8",
            "min": -2.0203628540039062,
            "scale": 0.01403029759724935,
            "original_dtype": "float32"
          }
        },
        {
          "name": "block_12_project_BN/moving_variance",
          "shape": [96],
          "dtype": "float32",
          "quantization": {
            "dtype": "uint8",
            "min": 0.06772372871637344,
            "scale": 0.0008960583338550493,
            "original_dtype": "float32"
          }
        },
        {
          "name": "block_13_expand/kernel",
          "shape": [1, 1, 96, 576],
          "dtype": "float32",
          "quantization": {
            "dtype": "uint8",
            "min": -0.406265983394548,
            "scale": 0.003125122949188831,
            "original_dtype": "float32"
          }
        },
        {
          "name": "block_13_expand_BN/gamma",
          "shape": [576],
          "dtype": "float32",
          "quantization": {
            "dtype": "uint8",
            "min": 0.10349244624376297,
            "scale": 0.007125266130064048,
            "original_dtype": "float32"
          }
        },
        {
          "name": "block_13_expand_BN/beta",
          "shape": [576],
          "dtype": "float32",
          "quantization": {
            "dtype": "uint8",
            "min": -2.8268715475119794,
            "scale": 0.019768332500083773,
            "original_dtype": "float32"
          }
        },
        {
          "name": "block_13_expand_BN/moving_mean",
          "shape": [576],
          "dtype": "float32",
          "quantization": {
            "dtype": "uint8",
            "min": -0.017274078142409232,
            "scale": 0.0001415908044459773,
            "original_dtype": "float32"
          }
        },
        {
          "name": "block_13_expand_BN/moving_variance",
          "shape": [576],
          "dtype": "float32",
          "quantization": {
            "dtype": "uint8",
            "min": 0.6730480194091797,
            "scale": 0.06485117743997013,
            "original_dtype": "float32"
          }
        },
        {
          "name": "block_13_depthwise/depthwise_kernel",
          "shape": [3, 3, 576, 1],
          "dtype": "float32",
          "quantization": {
            "dtype": "uint8",
            "min": -1.4779909694896025,
            "scale": 0.01119690128401214,
            "original_dtype": "float32"
          }
        },
        {
          "name": "block_13_depthwise_BN/gamma",
          "shape": [576],
          "dtype": "float32",
          "quantization": {
            "dtype": "uint8",
            "min": 0.33248791098594666,
            "scale": 0.005624826866037705,
            "original_dtype": "float32"
          }
        },
        {
          "name": "block_13_depthwise_BN/beta",
          "shape": [576],
          "dtype": "float32",
          "quantization": {
            "dtype": "uint8",
            "min": -2.243341199089499,
            "scale": 0.02702820721794577,
            "original_dtype": "float32"
          }
        },
        {
          "name": "block_13_depthwise_BN/moving_mean",
          "shape": [576],
          "dtype": "float32",
          "quantization": {
            "dtype": "uint8",
            "min": -8.055277431712431,
            "scale": 0.047948079950669235,
            "original_dtype": "float32"
          }
        },
        {
          "name": "block_13_depthwise_BN/moving_variance",
          "shape": [576],
          "dtype": "float32",
          "quantization": {
            "dtype": "uint8",
            "min": 0.047811783850193024,
            "scale": 0.07701822060580348,
            "original_dtype": "float32"
          }
        },
        {
          "name": "block_13_project/kernel",
          "shape": [1, 1, 576, 160],
          "dtype": "float32",
          "quantization": {
            "dtype": "uint8",
            "min": -0.37938941261347603,
            "scale": 0.0028961023863624123,
            "original_dtype": "float32"
          }
        },
        {
          "name": "block_13_project_BN/gamma",
          "shape": [160],
          "dtype": "float32",
          "quantization": {
            "dtype": "uint8",
            "min": 1.5402735471725464,
            "scale": 0.005947483754625508,
            "original_dtype": "float32"
          }
        },
        {
          "name": "block_13_project_BN/beta",
          "shape": [160],
          "dtype": "float32",
          "quantization": {
            "dtype": "uint8",
            "min": -0.005736561979660216,
            "scale": 4.663871528179038e-5,
            "original_dtype": "float32"
          }
        },
        {
          "name": "block_13_project_BN/moving_mean",
          "shape": [160],
          "dtype": "float32",
          "quantization": {
            "dtype": "uint8",
            "min": -4.981894986769733,
            "scale": 0.039538849101347084,
            "original_dtype": "float32"
          }
        },
        {
          "name": "block_13_project_BN/moving_variance",
          "shape": [160],
          "dtype": "float32",
          "quantization": {
            "dtype": "uint8",
            "min": 0.16192007064819336,
            "scale": 0.009038725086286956,
            "original_dtype": "float32"
          }
        },
        {
          "name": "block_14_expand/kernel",
          "shape": [1, 1, 160, 960],
          "dtype": "float32",
          "quantization": {
            "dtype": "uint8",
            "min": -0.28526684466530294,
            "scale": 0.0022113708888783176,
            "original_dtype": "float32"
          }
        },
        {
          "name": "block_14_expand_BN/gamma",
          "shape": [960],
          "dtype": "float32",
          "quantization": {
            "dtype": "uint8",
            "min": 0.2842663824558258,
            "scale": 0.008831643473868276,
            "original_dtype": "float32"
          }
        },
        {
          "name": "block_14_expand_BN/beta",
          "shape": [960],
          "dtype": "float32",
          "quantization": {
            "dtype": "uint8",
            "min": -1.8760838732999914,
            "scale": 0.015899015875423656,
            "original_dtype": "float32"
          }
        },
        {
          "name": "block_14_expand_BN/moving_mean",
          "shape": [960],
          "dtype": "float32",
          "quantization": {
            "dtype": "uint8",
            "min": -0.004197908324353836,
            "scale": 3.180233579055936e-5,
            "original_dtype": "float32"
          }
        },
        {
          "name": "block_14_expand_BN/moving_variance",
          "shape": [960],
          "dtype": "float32",
          "quantization": {
            "dtype": "uint8",
            "min": 0.45355403423309326,
            "scale": 0.03090229455162497,
            "original_dtype": "float32"
          }
        },
        {
          "name": "block_14_depthwise/depthwise_kernel",
          "shape": [3, 3, 960, 1],
          "dtype": "float32",
          "quantization": {
            "dtype": "uint8",
            "min": -3.8112387404722328,
            "scale": 0.026652019164141488,
            "original_dtype": "float32"
          }
        },
        {
          "name": "block_14_depthwise_BN/gamma",
          "shape": [960],
          "dtype": "float32",
          "quantization": {
            "dtype": "uint8",
            "min": 0.27287188172340393,
            "scale": 0.017536599378959804,
            "original_dtype": "float32"
          }
        },
        {
          "name": "block_14_depthwise_BN/beta",
          "shape": [960],
          "dtype": "float32",
          "quantization": {
            "dtype": "uint8",
            "min": -5.427212546853458,
            "scale": 0.03289219725365732,
            "original_dtype": "float32"
          }
        },
        {
          "name": "block_14_depthwise_BN/moving_mean",
          "shape": [960],
          "dtype": "float32",
          "quantization": {
            "dtype": "uint8",
            "min": -5.377508915171904,
            "scale": 0.047171130834841264,
            "original_dtype": "float32"
          }
        },
        {
          "name": "block_14_depthwise_BN/moving_variance",
          "shape": [960],
          "dtype": "float32",
          "quantization": {
            "dtype": "uint8",
            "min": 1.842346682678908e-5,
            "scale": 0.09706380762434884,
            "original_dtype": "float32"
          }
        },
        {
          "name": "block_14_project/kernel",
          "shape": [1, 1, 960, 160],
          "dtype": "float32",
          "quantization": {
            "dtype": "uint8",
            "min": -0.29176743848651066,
            "scale": 0.0020403317376679066,
            "original_dtype": "float32"
          }
        },
        {
          "name": "block_14_project_BN/gamma",
          "shape": [160],
          "dtype": "float32",
          "quantization": {
            "dtype": "uint8",
            "min": 0.8525843024253845,
            "scale": 0.006889042433570413,
            "original_dtype": "float32"
          }
        },
        {
          "name": "block_14_project_BN/beta",
          "shape": [160],
          "dtype": "float32",
          "quantization": {
            "dtype": "uint8",
            "min": -0.0053320757058613446,
            "scale": 4.370553857263397e-5,
            "original_dtype": "float32"
          }
        },
        {
          "name": "block_14_project_BN/moving_mean",
          "shape": [160],
          "dtype": "float32",
          "quantization": {
            "dtype": "uint8",
            "min": -2.212380796320298,
            "scale": 0.016031744900871725,
            "original_dtype": "float32"
          }
        },
        {
          "name": "block_14_project_BN/moving_variance",
          "shape": [160],
          "dtype": "float32",
          "quantization": {
            "dtype": "uint8",
            "min": 0.14147262275218964,
            "scale": 0.0012204890742021448,
            "original_dtype": "float32"
          }
        },
        {
          "name": "block_15_expand/kernel",
          "shape": [1, 1, 160, 960],
          "dtype": "float32",
          "quantization": {
            "dtype": "uint8",
            "min": -0.28808323109851164,
            "scale": 0.002342140090231802,
            "original_dtype": "float32"
          }
        },
        {
          "name": "block_15_expand_BN/gamma",
          "shape": [960],
          "dtype": "float32",
          "quantization": {
            "dtype": "uint8",
            "min": 0.1789790391921997,
            "scale": 0.010355070993012073,
            "original_dtype": "float32"
          }
        },
        {
          "name": "block_15_expand_BN/beta",
          "shape": [960],
          "dtype": "float32",
          "quantization": {
            "dtype": "uint8",
            "min": -2.070795966129677,
            "scale": 0.0183256280188467,
            "original_dtype": "float32"
          }
        },
        {
          "name": "block_15_expand_BN/moving_mean",
          "shape": [960],
          "dtype": "float32",
          "quantization": {
            "dtype": "uint8",
            "min": -0.006390188897357267,
            "scale": 5.153378143030054e-5,
            "original_dtype": "float32"
          }
        },
        {
          "name": "block_15_expand_BN/moving_variance",
          "shape": [960],
          "dtype": "float32",
          "quantization": {
            "dtype": "uint8",
            "min": 0.6199929118156433,
            "scale": 0.05581097439223645,
            "original_dtype": "float32"
          }
        },
        {
          "name": "block_15_depthwise/depthwise_kernel",
          "shape": [3, 3, 960, 1],
          "dtype": "float32",
          "quantization": {
            "dtype": "uint8",
            "min": -3.785093647825952,
            "scale": 0.028459350735533472,
            "original_dtype": "float32"
          }
        },
        {
          "name": "block_15_depthwise_BN/gamma",
          "shape": [960],
          "dtype": "float32",
          "quantization": {
            "dtype": "uint8",
            "min": 0.15857809782028198,
            "scale": 0.01707877855674893,
            "original_dtype": "float32"
          }
        },
        {
          "name": "block_15_depthwise_BN/beta",
          "shape": [960],
          "dtype": "float32",
          "quantization": {
            "dtype": "uint8",
            "min": -6.1721340029847385,
            "scale": 0.03588450001735313,
            "original_dtype": "float32"
          }
        },
        {
          "name": "block_15_depthwise_BN/moving_mean",
          "shape": [960],
          "dtype": "float32",
          "quantization": {
            "dtype": "uint8",
            "min": -15.624351277070888,
            "scale": 0.09469303804285387,
            "original_dtype": "float32"
          }
        },
        {
          "name": "block_15_depthwise_BN/moving_variance",
          "shape": [960],
          "dtype": "float32",
          "quantization": {
            "dtype": "uint8",
            "min": 1.4869190181343583e-6,
            "scale": 0.08263857389282676,
            "original_dtype": "float32"
          }
        },
        {
          "name": "block_15_project/kernel",
          "shape": [1, 1, 960, 160],
          "dtype": "float32",
          "quantization": {
            "dtype": "uint8",
            "min": -0.4421762031667373,
            "scale": 0.003349819720960131,
            "original_dtype": "float32"
          }
        },
        {
          "name": "block_15_project_BN/gamma",
          "shape": [160],
          "dtype": "float32",
          "quantization": {
            "dtype": "uint8",
            "min": 1.2690191268920898,
            "scale": 0.010827373055850758,
            "original_dtype": "float32"
          }
        },
        {
          "name": "block_15_project_BN/beta",
          "shape": [160],
          "dtype": "float32",
          "quantization": {
            "dtype": "uint8",
            "min": -0.0035105523260712036,
            "scale": 3.106683474399295e-5,
            "original_dtype": "float32"
          }
        },
        {
          "name": "block_15_project_BN/moving_mean",
          "shape": [160],
          "dtype": "float32",
          "quantization": {
            "dtype": "uint8",
            "min": -2.5751334662530936,
            "scale": 0.014715048378589106,
            "original_dtype": "float32"
          }
        },
        {
          "name": "block_15_project_BN/moving_variance",
          "shape": [160],
          "dtype": "float32",
          "quantization": {
            "dtype": "uint8",
            "min": 0.03184259310364723,
            "scale": 0.0005415137345884361,
            "original_dtype": "float32"
          }
        },
        {
          "name": "block_16_expand/kernel",
          "shape": [1, 1, 160, 960],
          "dtype": "float32",
          "quantization": {
            "dtype": "uint8",
            "min": -0.3834458277505987,
            "scale": 0.003117445754069908,
            "original_dtype": "float32"
          }
        },
        {
          "name": "block_16_expand_BN/gamma",
          "shape": [960],
          "dtype": "float32",
          "quantization": {
            "dtype": "uint8",
            "min": 0.26550257205963135,
            "scale": 0.013347750551560346,
            "original_dtype": "float32"
          }
        },
        {
          "name": "block_16_expand_BN/beta",
          "shape": [960],
          "dtype": "float32",
          "quantization": {
            "dtype": "uint8",
            "min": -1.835452304166906,
            "scale": 0.01555468054378734,
            "original_dtype": "float32"
          }
        },
        {
          "name": "block_16_expand_BN/moving_mean",
          "shape": [960],
          "dtype": "float32",
          "quantization": {
            "dtype": "uint8",
            "min": -0.01100045940016999,
            "scale": 8.943462926967471e-5,
            "original_dtype": "float32"
          }
        },
        {
          "name": "block_16_expand_BN/moving_variance",
          "shape": [960],
          "dtype": "float32",
          "quantization": {
            "dtype": "uint8",
            "min": 0.7110252976417542,
            "scale": 0.15230863959181543,
            "original_dtype": "float32"
          }
        },
        {
          "name": "block_16_depthwise/depthwise_kernel",
          "shape": [3, 3, 960, 1],
          "dtype": "float32",
          "quantization": {
            "dtype": "uint8",
            "min": -2.7995267755845012,
            "scale": 0.023329389796537512,
            "original_dtype": "float32"
          }
        },
        {
          "name": "block_16_depthwise_BN/gamma",
          "shape": [960],
          "dtype": "float32",
          "quantization": {
            "dtype": "uint8",
            "min": 0.4403918385505676,
            "scale": 0.011907426749958712,
            "original_dtype": "float32"
          }
        },
        {
          "name": "block_16_depthwise_BN/beta",
          "shape": [960],
          "dtype": "float32",
          "quantization": {
            "dtype": "uint8",
            "min": -3.7269901013841813,
            "scale": 0.03240860957725375,
            "original_dtype": "float32"
          }
        },
        {
          "name": "block_16_depthwise_BN/moving_mean",
          "shape": [960],
          "dtype": "float32",
          "quantization": {
            "dtype": "uint8",
            "min": -5.389673502304975,
            "scale": 0.03389731762455959,
            "original_dtype": "float32"
          }
        },
        {
          "name": "block_16_depthwise_BN/moving_variance",
          "shape": [960],
          "dtype": "float32",
          "quantization": {
            "dtype": "uint8",
            "min": 1.6596051466422068e-7,
            "scale": 0.2333126435596907,
            "original_dtype": "float32"
          }
        },
        {
          "name": "block_16_project/kernel",
          "shape": [1, 1, 960, 320],
          "dtype": "float32",
          "quantization": {
            "dtype": "uint8",
            "min": -0.43980640757317635,
            "scale": 0.0039982400688470575,
            "original_dtype": "float32"
          }
        },
        {
          "name": "block_16_project_BN/gamma",
          "shape": [320],
          "dtype": "float32",
          "quantization": {
            "dtype": "uint8",
            "min": 1.7404980659484863,
            "scale": 0.007029395944931928,
            "original_dtype": "float32"
          }
        },
        {
          "name": "block_16_project_BN/beta",
          "shape": [320],
          "dtype": "float32",
          "quantization": {
            "dtype": "uint8",
            "min": -0.004136866955634426,
            "scale": 3.628830662837216e-5,
            "original_dtype": "float32"
          }
        },
        {
          "name": "block_16_project_BN/moving_mean",
          "shape": [320],
          "dtype": "float32",
          "quantization": {
            "dtype": "uint8",
            "min": -9.496954553267535,
            "scale": 0.05105889544767492,
            "original_dtype": "float32"
          }
        },
        {
          "name": "block_16_project_BN/moving_variance",
          "shape": [320],
          "dtype": "float32",
          "quantization": {
            "dtype": "uint8",
            "min": 0.17204813659191132,
            "scale": 0.03608221335738313,
            "original_dtype": "float32"
          }
        },
        {
          "name": "Conv_1/kernel",
          "shape": [1, 1, 320, 1280],
          "dtype": "float32",
          "quantization": {
            "dtype": "uint8",
            "min": -0.14345815953086405,
            "scale": 0.0011385568216735241,
            "original_dtype": "float32"
          }
        },
        {
          "name": "Conv_1_bn/gamma",
          "shape": [1280],
          "dtype": "float32",
          "quantization": {
            "dtype": "uint8",
            "min": 4.06283712387085,
            "scale": 0.004275682860729741,
            "original_dtype": "float32"
          }
        },
        {
          "name": "Conv_1_bn/beta",
          "shape": [1280],
          "dtype": "float32",
          "quantization": {
            "dtype": "uint8",
            "min": -5.497800350189209,
            "scale": 0.007150753806619083,
            "original_dtype": "float32"
          }
        },
        {
          "name": "Conv_1_bn/moving_mean",
          "shape": [1280],
          "dtype": "float32",
          "quantization": {
            "dtype": "uint8",
            "min": -0.003345153155718364,
            "scale": 2.4963829520286297e-5,
            "original_dtype": "float32"
          }
        },
        {
          "name": "Conv_1_bn/moving_variance",
          "shape": [1280],
          "dtype": "float32",
          "quantization": {
            "dtype": "uint8",
            "min": 0.4189695119857788,
            "scale": 0.020259863255070704,
            "original_dtype": "float32"
          }
        },
        {
          "name": "dense_2/kernel",
          "shape": [1280, 3],
          "dtype": "float32",
          "quantization": {
            "dtype": "uint8",
            "min": -0.08070105346394521,
            "scale": 0.0006160385760606504,
            "original_dtype": "float32"
          }
        },
        {
          "name": "dense_2/bias",
          "shape": [3],
          "dtype": "float32",
          "quantization": {
            "dtype": "uint8",
            "min": -0.005963426429833121,
            "scale": 2.526875605861492e-5,
            "original_dtype": "float32"
          }
        }
      ]
    }
  ]
}
